src/saved_models/pendulum/actor.pt (torch, 270644 bytes, 5 tensors)

linear1.weight f4 [256, 3]
0	0xbe6c44b8	-0.23073089
1	0x3e35318c	0.17694682
2	0xbdee9e8d	-0.11651335
3	0xbec7bc63	-0.39010915
4	0x3e5f15d7	0.21785675
5	0xbc39a925	-0.011331831
6	0xbe2af033	-0.16693191
7	0x3eeac499	0.45853117
8	0xbed44e50	-0.41465998
9	0x3ebeb812	0.3724981
10	0xbe786dea	-0.24260679
11	0xbef02086	-0.46899813
12	0x3dd7c74f	0.10536062
13	0xbe76a0fa	-0.24084845
14	0xbef26f8a	-0.47350723
15	0xbf064173	-0.5244362
16	0x3e78d2ab	0.24299113
17	0x3eecfcd6	0.4628665
18	0xbd394bca	-0.045238294
19	0xbe36b28d	-0.17841549
20	0xbea68589	-0.32523754
21	0xbef085b2	-0.46977
22	0x3e063543	0.13106255
23	0xbf140b73	-0.5782997
24	0x3e05d8de	0.1307101
25	0x3f0aaea8	0.54172754
26	0x3d2903c4	0.041263357
27	0xbd9cda70	-0.07658851
28	0x3d97ecf4	0.07418242
29	0x3eb91ea6	0.36156195
30	0xbe90162c	-0.28141916
31	0xbedb0437	-0.42776653
32	0xbeca5582	-0.39518362
33	0xbed196ef	-0.40935466
34	0xbdd267f7	-0.10273736
35	0x3f04d825	0.5189231
36	0xbeabdc27	-0.335664
37	0xbe0322b3	-0.12806205
38	0x3f104c4e	0.5636643
39	0xbf188974	-0.59584737
40	0x3d35433f	0.044253584
41	0xbe9ee593	-0.31034526
42	0x3dcd416f	0.10022246
43	0xbf05d7e1	-0.5228253
44	0x3ecb62d8	0.3972385
45	0x3ef43baa	0.4770177
46	0x3dece56e	0.11567198
47	0xbe182fa3	-0.14861922
48	0xbe5b1a30	-0.21396708
49	0xbcd08796	-0.025455277
50	0x3e857468	0.26065373
51	0x3df9380a	0.12168892
52	0x3f1076c6	0.56431234
53	0x3df0cb30	0.11757505
54	0x3ebd8f6a	0.3702348
55	0xbe86682a	-0.26251346
56	0x3e218530	0.15773463
57	0x3e4cb5e3	0.1999126
58	0xbe5ec5e1	-0.21755172
59	0x3dfddf18	0.123960674
60	0x3eee90fb	0.46594986
61	0x3f23a4db	0.63923424
62	0x3ef171d2	0.4715715
63	0xbf01fc15	-0.5077527
64	0x3eb15fda	0.3464344
65	0x3e47ca49	0.1951076
66	0x3f193290	0.5984278
67	0xbd754bda	-0.05988679
68	0x3d9cb89c	0.07652399
69	0x3e219a76	0.15781578
70	0xbe22429e	-0.15845725
71	0x3f1416ab	0.5784709
72	0x3e6e1079	0.23248471
73	0x3ebb572d	0.36589947
74	0x3e91c44b	0.28470072
75	0xbeb3abf2	-0.3509212
76	0x3dfb1a4a	0.122608736
77	0xbd96e2cc	-0.07367477
78	0x3e854506	0.26029223
79	0xbef905de	-0.4863729
80	0xbe5f5b8c	-0.21812266
81	0x3e9bea99	0.3045242
82	0xbec71190	-0.38880587
83	0x3ca158f6	0.01969574
84	0x3e76970e	0.2408106
85	0xbef2287a	-0.47296506
86	0xbe9662b8	-0.2937219
87	0xbf01f07a	-0.50757563
88	0xbee73299	-0.4515579
89	0x3d92a875	0.07161037
90	0xbf1531c2	-0.5827905
91	0xbf1358eb	-0.57557553
92	0x3f0d323b	0.5515477
93	0x3ebcdf6a	0.368892
94	0x3e98f01b	0.29870686
95	0xbee7e0cc	-0.45288694
96	0xbf1592a4	-0.5842688
97	0xbf632592	-0.887292
98	0xbec4c5cc	-0.38432157
99	0x3d57ddfb	0.05270193
100	0xbe189c64	-0.14903408
101	0x3ec722c4	0.38893712
102	0xbed17539	-0.40909746
103	0xbec78e1f	-0.38975617
104	0x3f06df65	0.52684623
105	0x3ebc2c1e	0.3675241
106	0xbe1dae68	-0.15398562
107	0xbe8f4e2a	-0.27989322
108	0xbe059b97	-0.13047634
109	0xbd06589c	-0.03279935
110	0x3ede074c	0.43364942
111	0xbf030c99	-0.511911
112	0x3f03d9bc	0.5150411
113	0x3e23626d	0.15955515
114	0xbeea9876	-0.45819443
115	0x3c0e5615	0.008687516
116	0xbe37bbd1	-0.1794274
117	0xbf02f532	-0.5115539
118	0x3f057a4f	0.52139753
119	0xbe248c65	-0.16069181
120	0xbea2c7d3	-0.3179308
121	0x3ed142d5	0.408713
122	0xbec0cf3c	-0.37658107
123	0x3bd758c3	0.0065718605
124	0xbf003aa7	-0.50089496
125	0x3ee02b6e	0.43783134
126	0xbe2f239c	-0.17103428
127	0x3f157b08	0.58390856
128	0x3f17f24a	0.5935408
129	0x3f0ff312	0.5623027
130	0x3e447718	0.19186056
131	0xbdc7b4df	-0.09751295
132	0x3efd1bb8	0.4943521
133	0x3c6cd596	0.01445522
134	0x3f0035ed	0.50082284
135	0xbdef2b8e	-0.11678229
136	0x3da8fc0d	0.082512
137	0x3f09c4f5	0.5381616
138	0x3e235200	0.1594925
139	0xbec3d50f	-0.38248488
140	0xbed23267	-0.4105408
141	0xbefd1826	-0.49432486
142	0xbef3b145	-0.47596183
143	0x3f066d01	0.52510077
144	0xbee4ba52	-0.446734
145	0xbeafbd21	-0.3432398
146	0x3f0b158a	0.5432974
147	0xbea09aa0	-0.3136797
148	0xbe28ac2c	-0.16471928
149	0x3f11f7bd	0.57018644
150	0xbe73f0b2	-0.23822287
151	0xbf15d9f4	-0.58535695
152	0xbe89628b	-0.26832995
153	0xbf19a932	-0.60023797
154	0x3dd1152c	0.10209116
155	0x3f05269a	0.52012026
156	0x3d8f8c50	0.07009184
157	0xbe5f74c0	-0.2182188
158	0x3c42b1c0	0.011883199
159	0x3e3059fb	0.17221825
160	0x3eb3e854	0.3513819
161	0x3ef0211f	0.4690027
162	0x3e93ed7c	0.28892124
163	0xbd57db5e	-0.05269944
164	0x3f0aac7f	0.5416946
165	0x3aa63391	0.0012680163
166	0xbf2bc17c	-0.6709211
167	0x3e0bc794	0.13650352
168	0xbc7a7ef3	-0.015289056
169	0x3e592b59	0.21207942
170	0xbea60e7a	-0.3243292
171	0x3f0697b3	0.52575225
172	0xbf03d4ab	-0.5149638
173	0xbec1d74b	-0.37859568
174	0x3d347ced	0.04406445
175	0xbea2af81	-0.31774524
176	0xbeb118f6	-0.34589356
177	0x3d85c4d5	0.06531683
178	0x3ef5fa46	0.48042506
179	0xbcebc393	-0.02877978
180	0xbeb7c152	-0.3588968
181	0x3e2780ba	0.16357699
182	0xbe808085	-0.25098053
183	0xbec3b59f	-0.38224503
184	0xbf1c92f5	-0.6116174
185	0x3ea5f180	0.32410812
186	0xbcdbf132	-0.02684841
187	0xbf1ee812	-0.6207286
188	0xbd367bc5	-0.04455163
189	0xbed95fa5	-0.42455783
190	0x3d10d7a1	0.03536189
191	0xbe19e7a7	-0.15029775
192	0x3e39df1f	0.1815152
193	0x3ca6867a	0.020327795
194	0x3e9e2207	0.30885336
195	0x3d9266c0	0.07148504
196	0x3ee6e5a1	0.45097068
197	0xbe95dea4	-0.29271424
198	0x3d10d148	0.035355836
199	0xbea1a70c	-0.3157276
200	0x3cd10a4f	0.02551761
201	0x3d81ecc6	0.06343989
202	0xbee7ada1	-0.45249656
203	0xbe9c8240	-0.30568123
204	0x3e571bce	0.210067
205	0xbeef47d3	-0.46734485
206	0x3e2f91fa	0.1714553
207	0xbf1014c3	-0.5628168
208	0x3e1129ab	0.14176051
209	0xbd2e5912	-0.042565413
210	0xbeaa6e46	-0.33287257
211	0xbe50ba9d	-0.20383687
212	0xbe6c43e5	-0.23072775
213	0xbe55b4a0	-0.20869684
214	0x3eb4a1ab	0.35279593
215	0x3cad1c8e	0.02113178
216	0x3d115ac8	0.035486966
217	0x3e908f44	0.28234303
218	0xbedbb84c	-0.42914045
219	0x3ebcecb1	0.3689933
220	0xbf14e8f0	-0.58167934
221	0xbeedc49d	-0.46439067
222	0xbe4de81a	-0.20108071
223	0xbd3c3e3d	-0.045957793
224	0x3f0c6509	0.5484167
225	0xbed4a2ac	-0.4153036
226	0xbec2eb0c	-0.38069952
227	0x3cab35b5	0.020899633
228	0x3f134ba8	0.5753732
229	0xbf0a39c7	-0.5399441
230	0xbf0cf7bb	-0.55065507
231	0xbd5410ec	-0.05177395
232	0xbf156460	-0.58356285
233	0xbee74ded	-0.4517664
234	0xbd09916a	-0.033585943
235	0x3e44dde7	0.19225274
236	0xbf0bfc8f	-0.5468225
237	0x3ea1e4c7	0.31619856
238	0x3e5a21b4	0.21301919
239	0x3d96c4a2	0.073617235
240	0xbd6d703d	-0.057968367
241	0x3e986138	0.29761672
242	0xbef54f15	-0.47911897
243	0x3f1886b7	0.5958056
244	0x3ec2e216	0.38063115
245	0x3e8eca87	0.2788889
246	0x3daa2b20	0.08309007
247	0x3e9c1ddc	0.3049153
248	0xbeed77a8	-0.46380353
249	0xbf101600	-0.5628357
250	0xbf039170	-0.51393795
251	0x3e0eb969	0.13937916
252	0x3d451176	0.048112355
253	0xbed11d10	-0.40842485
254	0xbe485f8f	-0.19567703
255	0xbe7c5a9a	-0.24643937

linear1.bias f4 [256]
0	0xbce5476c	-0.027988158
1	0x3ec65458	0.38736224
2	0x3f037b6b	0.51360196
3	0xbe614820	-0.2200017
4	0xbe88a836	-0.26690835
5	0x3eb5bc5c	0.3549527
6	0x3d36c6de	0.04462325
7	0xbcebe402	-0.028795246
8	0x3ebc5bc8	0.36788774
9	0xbea2b341	-0.31777385
10	0x3d2e8bd5	0.042613823
11	0xbed7e04a	-0.42163306
12	0xbf0043c1	-0.50103384
13	0xbe385257	-0.1800016
14	0x3e6fc4f8	0.23414981
15	0x3eb95416	0.36196965
16	0xbe6debbf	-0.23234461
17	0xbe806b9d	-0.25082102
18	0x3f01460a	0.50497496
19	0x3ee5cb11	0.4488149
20	0xbe189fbc	-0.14904684
21	0xbefa67d6	-0.48907346
22	0xbdb23377	-0.087012224
23	0xbedb642b	-0.4284986
24	0x3ebf9c3b	0.37423882
25	0xbeb6ebf9	-0.35726908
26	0xbee95d44	-0.4557897
27	0x3ee179f7	0.44038364
28	0x3f0ac38f	0.5420465
29	0xbe495d0c	-0.19664401
30	0x3d4aa88c	0.049477145
31	0x3e08eae2	0.1337085
32	0x3f1a3fd0	0.6025362
33	0xbefbf6de	-0.49211782
34	0x3eb2edbb	0.34947
35	0x3ed4fb4c	0.41597974
36	0xbf063625	-0.5242637
37	0x3e528b90	0.20561051
38	0x3f12d6f4	0.5735924
39	0x3e12ec0d	0.14347859
40	0x3e58c1ab	0.21167628
41	0xbed24ad1	-0.41072705
42	0xbf0921b1	-0.53567034
43	0x3e366849	0.17813219
44	0xbee9fb61	-0.456996
45	0x3e465419	0.19368018
46	0xbea8b54c	-0.3295082
47	0x3ea86dff	0.3289642
48	0xbf0cce90	-0.5500269
49	0x3e289466	0.1646286
50	0xbec5e0e2	-0.38648134
51	0x3ee95671	0.45573762
52	0xbf037271	-0.513465
53	0xbf0161a9	-0.5053964
54	0xbe452f1b	-0.1925625
55	0xbe5eab03	-0.21744923
56	0x3f15d260	0.5852413
57	0xbed9ada3	-0.42515287
58	0x3e268205	0.16260536
59	0xbec13cf0	-0.37741804
60	0x3e3beafc	0.18351358
61	0x3ec5114f	0.38489768
62	0x3e2da2fa	0.16956702
63	0xbd9a4bdb	-0.075339995
64	0xbe42c0ed	-0.19018908
65	0xbec7c8c6	-0.39020365
66	0xbede0818	-0.4336555
67	0xbe648508	-0.22316372
68	0xbed10ee5	-0.40831676
69	0x3e4de006	0.2010499
70	0x3e095cd7	0.13414322
71	0xbe358a8f	-0.17728637
72	0xbf0e7ad6	-0.5565618
73	0x3dc7bcab	0.097527824
74	0xbe9abc06	-0.30221575
75	0xbd7b72d3	-0.0613888
76	0xbd1b53e7	-0.037921812
77	0xbdc61986	-0.09672837
78	0xbe8b956e	-0.27262443
79	0xbdde8d5e	-0.108668074
80	0x3de589f9	0.11207957
81	0x3b6167a6	0.0034394055
82	0xbcad0e94	-0.021125115
83	0x3ec32d24	0.38120377
84	0xbdbe4d6d	-0.092921115
85	0xbe9fd313	-0.31215724
86	0x3e966f0e	0.29381603
87	0x3ef2ee1e	0.47447294
88	0xbe6247fc	-0.22097772
89	0x3e977708	0.29583
90	0xbe7dc0cd	-0.24780579
91	0x3cb2ce4d	0.021826888
92	0x3f0a3914	0.53993344
93	0x3e8cf3b1	0.27529672
94	0x3ebc8d81	0.3682671
95	0x3ebb7c59	0.36618307
96	0x3e81ce97	0.25352928
97	0x3edecdca	0.4351638
98	0x3ef08970	0.46979856
99	0xbf133bc9	-0.575131
100	0x3edf7c6c	0.43649614
101	0x3e483f23	0.19555335
102	0x3eaf4043	0.34228715
103	0xbd433eec	-0.04766743
104	0xbd95612e	-0.07293926
105	0xbd22542f	-0.039631065
106	0xbe81fd92	-0.2538877
107	0x3d3113df	0.04323184
108	0xbf006edc	-0.5016916
109	0xbdcf4378	-0.101202905
110	0x3eeb493b	0.45954308
111	0x3ee04027	0.43798944
112	0xbdb4549b	-0.088052
113	0xbe51f64a	-0.20504108
114	0x3d2a93d1	0.041644875
115	0x3ece85f8	0.40336585
116	0xbed0edcb	-0.40806422
117	0x3e7de1a3	0.24793105
118	0xbeca2b99	-0.39486387
119	0x3df24001	0.11828614
120	0xbcdeabec	-0.027181588
121	0xbc0d88dd	-0.008638588
122	0xbe56fcc1	-0.20994855
123	0xbea4a4ac	-0.32156885
124	0xbeae55b3	-0.34049758
125	0xbd588288	-0.05285886
126	0x3e254d8a	0.1614286
127	0x3f135976	0.5755838
128	0x3e1b2f22	0.15154698
129	0xbec268fa	-0.37970716
130	0x3db34123	0.08752658
131	0xbee03200	-0.43788147
132	0xbe8e2237	-0.2776048
133	0x3ec64fed	0.38732854
134	0xbec30b41	-0.38094524
135	0x3ede255e	0.43387884
136	0xbe99fb73	-0.30074653
137	0x3e9c4ee6	0.30528945
138	0xbe2363f8	-0.15956104
139	0xbe5f52b8	-0.21808898
140	0xbf0d45da	-0.5518471
141	0xbd635e52	-0.055509873
142	0x3edb9daf	0.4289374
143	0x3ec1c2df	0.37843987
144	0x3e8e329c	0.27772987
145	0x3dcab95c	0.09898636
146	0xbe811413	-0.25210628
147	0x3c02c97b	0.007982607
148	0xbe60c094	-0.21948463
149	0xbf0b429e	-0.54398525
150	0x3f1b5f27	0.60692066
151	0xbf0a545e	-0.54034984
152	0x3f037eae	0.5136517
153	0xbef9766c	-0.4872316
154	0xbf08af30	-0.53392315
155	0x3eb0ad38	0.34507155
156	0x3eaa049f	0.3320665
157	0x3d8d93bb	0.06912943
158	0x3e9a8bee	0.30184883
159	0x3ea7ce5a	0.3277462
160	0x3ed5c49f	0.41751572
161	0xbe6ae254	-0.229379
162	0x3ddd9cd8	0.10820931
163	0x3c7818e4	0.015142653
164	0x3ee9013b	0.4550875
165	0x3e1314e2	0.14363435
166	0x3c7fe2e6	0.015618062
167	0xbe2a4ad6	-0.1663011
168	0xbeec95e6	-0.46208113
169	0x3f0e6ceb	0.55634946
170	0x3d4469e8	0.047952563
171	0x3cb3375b	0.021876981
172	0xbe15c2fa	-0.14625159
173	0xbeaa0794	-0.33208907
174	0x3f110889	0.5665365
175	0x3ec42e95	0.3831679
176	0xbebc4905	-0.3677446
177	0x3f07202a	0.52783453
178	0xbec4c605	-0.38432327
179	0xbef44617	-0.47709724
180	0xbdfecf5d	-0.12441895
181	0x3ead812d	0.33887616
182	0xbe311e21	-0.1729665
183	0x3edfc1a3	0.4370242
184	0xbf08a836	-0.5338167
185	0x3e37732f	0.17915033
186	0xbe5a0666	-0.21291503
187	0xbde9295e	-0.11384843
188	0x3efd59ed	0.4948267
189	0xbdbe48f4	-0.092912585
190	0xbdfb1bef	-0.12261187
191	0xbe3c7600	-0.18404388
192	0x3edb2c10	0.42807055
193	0xbf0a9ed5	-0.5414861
194	0xbeec72a8	-0.46181226
195	0x3eb52462	0.3537932
196	0xbec12976	-0.37726945
197	0x3bf7e5ac	0.007565221
198	0x3e3c5239	0.1839074
199	0xbeb15fa9	-0.34643295
200	0x3efed084	0.4976846
201	0xbedb2852	-0.428042
202	0xbed66cd3	-0.418799
203	0x3e4078e4	0.18796116
204	0xbef24cae	-0.47324127
205	0x3eb9ed53	0.36313877
206	0xbea143d4	-0.3149706
207	0xbef0d04d	-0.4703392
208	0x3e275941	0.16342641
209	0xbef23323	-0.4730464
210	0xbe320961	-0.1738639
211	0xbe1eb2e6	-0.15497932
212	0xbed0f40b	-0.4081119
213	0x3efadc7c	0.4899634
214	0xbf039c06	-0.5140995
215	0xbe8e274b	-0.27764353
216	0xbed0ca34	-0.4077927
217	0x3ca4dcee	0.020124879
218	0xbea7d3b1	-0.32778695
219	0xbeee79dc	-0.46577346
220	0xbd3f4133	-0.04669304
221	0x3e8a5281	0.2701607
222	0x3e80bc9f	0.25143906
223	0xbec82366	-0.39089507
224	0xbd6c2465	-0.057651896
225	0x3f01b03b	0.5065953
226	0x3c463d49	0.012099572
227	0xbf014241	-0.5049172
228	0x3eb36ada	0.3504246
229	0xbe652d4f	-0.22380565
230	0x3d338504	0.043828025
231	0xbef5f3af	-0.48037478
232	0x3ef98391	0.4873319
233	0x3e8cee70	0.27525663
234	0x3ea050c2	0.31311613
235	0x3ea63d0b	0.32468447
236	0x3db3b2fa	0.087743714
237	0xbe395c82	-0.18101695
238	0xbee2fbad	-0.44332638
239	0xbed12f24	-0.40856278
240	0x3f1ba560	0.6079922
241	0xbe7b82aa	-0.24561563
242	0xbf1a8984	-0.6036608
243	0x3d332648	0.04373768
244	0x3eb46289	0.35231426
245	0xbd2e9a48	-0.042627603
246	0xbefee3c0	-0.49783134
247	0x3eba863d	0.3643054
248	0xbe72366b	-0.23653571
249	0xbe9572cd	-0.2918915
250	0xbbca3584	-0.0061709303
251	0x3db819f7	0.089893274
252	0x3c91beb2	0.017791126
253	0xbf0b6f22	-0.5446645
254	0xbd7069f8	-0.05869481
255	0xbed4528b	-0.41469225

linear2.weight f4 [256, 256]
0	0xba2f8815	-0.0006695998
1	0x3d5ebb00	0.054377556
2	0x3d6e977a	0.058249928
3	0x3c83ee0f	0.016104726
4	0xbd25eba0	-0.040507913
5	0x3d8beab4	0.068318754
6	0x3c798086	0.015228396
7	0x3bcafabf	0.006194442
8	0x3ce83701	0.02834654
9	0xbcd313b7	-0.025766237
10	0x3d4c2c37	0.049846854
11	0xbb53c3ed	-0.0032312826
12	0xbba60d03	-0.005067469
13	0xbd48aa8e	-0.04899078
14	0x3dbdbc52	0.09264435
15	0xbd05fee8	-0.0327138
16	0xbbe95192	-0.0071203196
17	0xbd04251a	-0.032261945
18	0x3db301c9	0.08740575
19	0x3da9916c	0.0827969
20	0xbde1e28e	-0.1102954
21	0xbe010c37	-0.12602316
22	0x3cb9fa0d	0.022702241
23	0xbbc0b53a	-0.005880979
24	0xbd52df45	-0.051482458
25	0x3d44bd7b	0.048032265
26	0xbd4b8cd6	-0.04969486
27	0x3df7ba20	0.120960474
28	0xbc1e91bf	-0.009678303
29	0x3dc9c651	0.09852279
30	0x3d56b83d	0.052421797
31	0xbd63dbe4	-0.055629626
32	0x3dcabc42	0.098991886
33	0xbbc49abc	-0.005999891
34	0x3cc439ae	0.023953285
35	0x3ca83e14	0.020537414
36	0xbd9a6c61	-0.07540203
37	0x3d7a2a43	0.06107546
38	0x3cc61ec9	0.024184601
39	0x3d4250f8	0.0474405
40	0xbc770101	-0.015075923
41	0x3cf50bd3	0.029912865
42	0xbd4704f3	-0.048588704
43	0x3d0a4b24	0.033763066
44	0xbdc40c38	-0.09572643
45	0xbb2fc5c3	-0.0026820756
46	0x3cdf8684	0.027285822
47	0xbc184b27	-0.009295261
48	0x3c76c787	0.015062219
49	0x3d79d026	0.06098952
50	0x3ba17959	0.004927796
51	0x3cb50d86	0.022101175
52	0x3d594364	0.053042784
53	0xbdf00002	-0.117187515
54	0xbd5785ac	-0.052617714
55	0x3da1bbeb	0.07897171
56	0x3d3e9ada	0.046534397
57	0xbc1653d3	-0.009175259
58	0xbc96c9cb	-0.01840677
59	0xbc007716	-0.007840892
60	0x3cfb6f4f	0.030692725
61	0x3d77eb1b	0.06052695
62	0x3d8ded8a	0.069300726
63	0x3d93c0bd	0.07214496
64	0xbd69f91e	-0.057122342
65	0xbc34e8bd	-0.011041817
66	0x3c595430	0.013264701
67	0xbc479856	-0.012182316
68	0x3d1c2d84	0.038129345
69	0x3c046431	0.008080528
70	0xbd5bfba4	-0.05370678
71	0xbe1d8bba	-0.15385333
72	0x3bf6cb8e	0.00753159
73	0xbcbe4ab1	-0.023228975
74	0xbd9b2b5f	-0.07576632
75	0x3caaa548	0.020830765
76	0xbcdfc2ab	-0.027314505
77	0xbbd2264b	-0.0064132563
78	0xbc840452	-0.016115341
79	0x3c32df6b	0.010917525
80	0xbcbd9a85	-0.02314497
81	0xbcdb851a	-0.026796866
82	0x3cf4f282	0.029900793
83	0x3d97bdc3	0.07409241
84	0x3d34ee36	0.04417249
85	0x3d366342	0.044528253
86	0x3e0c6ec2	0.13714126
87	0x3ba01828	0.004885692
88	0x3c5c034c	0.01342852
89	0x3d47df15	0.048796732
90	0x3c82dfbf	0.015975831
91	0x3d9e459a	0.07728119
92	0x3d92b52c	0.07163462
93	0x3d8d120a	0.06888206
94	0xbad23d1a	-0.0016039938
95	0x3d52823b	0.05139373
96	0x3cacfc71	0.021116467
97	0x3cd7c7d6	0.026340406
98	0x3dbc716f	0.09201323
99	0x3cd8f239	0.026482688
100	0x3d46c685	0.048529167
101	0xbc0216f6	-0.007940045
102	0x3ca50be1	0.020147266
103	0xbc76459f	-0.015031247
104	0xbd00cfd1	-0.03144819
105	0x3da6dbe5	0.0814741
106	0x3d6cb5e9	0.05779067
107	0x3d46a0fc	0.04849337
108	0xbddc74f3	-0.10764494
109	0xbd6723ba	-0.056430556
110	0xbb1c60b9	-0.0023861362
111	0xbcfeba62	-0.031094734
112	0x3bc55bb0	0.006022893
113	0x3d124c33	0.0357172
114	0xbd28c99c	-0.041207895
115	0x3d903f8a	0.07043369
116	0xbbc47b12	-0.0059961164
117	0x3c588fd2	0.013217883
118	0xbe15fea4	-0.14647919
119	0x3d5c4f91	0.053786818
120	0xbd1404a6	-0.036137246
121	0x3d57ff99	0.05273399
122	0xbde9c607	-0.11414724
123	0xbca50974	-0.02014611
124	0xbe091490	-0.1338675
125	0xbcbf1a80	-0.023328066
126	0x3d71b020	0.059005857
127	0x3cceb3f1	0.025232287
128	0xbd091531	-0.033467475
129	0x3c845a38	0.0161563
130	0x3d7a868c	0.06116347
131	0x3ca8ae45	0.02059091
132	0xbdf20bb4	-0.118186384
133	0x3cd352a8	0.02579625
134	0x3c08da97	0.008352897
135	0x3d66a38c	0.056308314
136	0xbc21671b	-0.009851242
137	0x3d96018a	0.07324512
138	0x3d7b2b16	0.061320387
139	0xbd71386e	-0.058891706
140	0x3d02a973	0.03189988
141	0x3b87df21	0.004146472
142	0x3d677f89	0.05651811
143	0x3e0192fa	0.12653723
144	0x3cd71683	0.026255852
145	0x3d8535e8	0.065044224
146	0xbcf647e9	-0.030063586
147	0xbd0626ce	-0.03275185
148	0xbd4c74de	-0.04991614
149	0x3d60a669	0.0548462
150	0xbcbcecbc	-0.023062102
151	0xbd2762b5	-0.04086562
152	0xbd36143c	-0.04445289
153	0xbd7d54fb	-0.06184862
154	0xbd5332d6	-0.051562153
155	0x3e270a38	0.16312492
156	0x3d4e2a22	0.05033315
157	0xbc8ea9c4	-0.017414935
158	0x3c9ffbdf	0.019529281
159	0xbcadaaf5	-0.021199683
160	0xbd3613fd	-0.044452656
161	0x3c2704e1	0.010194034
162	0xbd1ea80c	-0.03873448
163	0x3c7747b5	0.01509278
164	0xbcd8b083	-0.026451355
165	0x3dc4f054	0.096161515
166	0xbd307f0d	-0.043089915
167	0x3dd15cf6	0.10222809
168	0xbe35c7d1	-0.17752005
169	0x3d2b6ce9	0.04185191
170	0x3d8bbb6a	0.06822856
171	0x3cfcac31	0.030843826
172	0xbafb935b	-0.0019193696
173	0x3d628551	0.05530292
174	0x3dd6eaa4	0.10493973
175	0xbca4ef78	-0.020133719
176	0xbba78118	-0.0051118247
177	0x3d3e29e4	0.04642667
178	0xbbd641af	-0.006538592
179	0xbd1ac433	-0.037784766
180	0x3cb05d09	0.021528738
181	0xbc968dc4	-0.018378146
182	0x3c5af8b8	0.013364963
183	0xbd30e366	-0.043185614
184	0x3ce5f5c9	0.028071301
185	0xbbfe56c0	-0.0077618062
186	0x3e593db8	0.2121495
187	0x3bb464cc	0.00550518
188	0x3d208d66	0.039197348
189	0x3b20de6e	0.002454664
190	0xbc8782f5	-0.016541937
191	0xbdbd0ba5	-0.09230737
192	0x3d493eff	0.049132343
193	0xbd743c6d	-0.05962794
194	0xbdc9b9d2	-0.098498955
195	0xb9d9efae	-0.0004156804
196	0xbcc03746	-0.023463856
197	0x3cbe8501	0.02325678
198	0x3c86f3f7	0.016473753
199	0xbd062c46	-0.032757066
200	0xbd176051	-0.03695709
201	0x3d6a9deb	0.05727951
202	0xbbc2a206	-0.005939725
203	0xbd289fd0	-0.041168034
204	0xbe1cf446	-0.15327558
205	0xbbe64476	-0.007027204
206	0x3d3121f2	0.043245263
207	0x3d7490da	0.059708454
208	0xbd5399c6	-0.05166032
209	0xbd8e181a	-0.06938191
210	0xbc8fcd1e	-0.017553862
211	0xbd786c71	-0.060650293
212	0xbd18ac9b	-0.037273984
213	0x3d5b1882	0.05349017
214	0x3d7b80a2	0.06140197
215	0xbd980bf3	-0.07424154
216	0xbe143804	-0.14474493
217	0x3d8dde5c	0.06927177
218	0xbd28564c	-0.041097924
219	0x3ca1b711	0.019740613
220	0xbd0abaae	-0.033869438
221	0x3d632297	0.05545291
222	0x3de27b1a	0.11058636
223	0xbcd9da2c	-0.02659329
224	0xbdc75fc5	-0.097350635
225	0xbbeb0bbc	-0.0071730297
226	0xbda35885	-0.07975868
227	0xbc528010	-0.012847915
228	0x3c185d3c	0.009299573
229	0xbbd1cae3	-0.00640236
230	0xbc488e23	-0.012240919
231	0xbda35681	-0.07975484
232	0xbcab0f8c	-0.020881437
233	0x3d6422b2	0.05569715
234	0x3c23d11b	0.009998585
235	0xba70aadf	-0.0009180735
236	0x3d1db9f8	0.03850743
237	0x3d8a43e6	0.06751232
238	0xbd298b5c	-0.04139267
239	0xbcf79031	-0.030220123
240	0x3cdce648	0.026965275
241	0xbdff8168	-0.12475854
242	0xbd756da8	-0.05991903
243	0xbd7de78f	-0.06198841
244	0x3da4ff7c	0.08056542
245	0x3d856cdf	0.06514906
246	0xbda782b3	-0.08179226
247	0x3dc00979	0.09376807
248	0xbda05844	-0.07829335
249	0xbd4dc3ee	-0.05023568
250	0x3d5979e1	0.05309475
251	0xbcfbc128	-0.030731753
252	0xbd910ba5	-0.07082299
253	0xbc010039	-0.007873588
254	0xbc286bc0	-0.010279596
255	0xbd11580b	-0.035484355

linear2.bias f4 [256]
0	0x3cccfb59	0.025022196
1	0xbbcec5a6	-0.0063101826
2	0x3d0c031e	0.03418266
3	0xbc5dcfa7	-0.013538278
4	0xba2aef18	-0.0006520613
5	0x3d52e99b	0.051492315
6	0x3d746561	0.059666995
7	0xbd236be1	-0.039897803
8	0x3bd49b53	0.0064882427
9	0x3d8ad42b	0.06778749
10	0x3d33e2e4	0.04391755
11	0x3af76fc6	0.0018877916
12	0x3b6f6662	0.003652953
13	0xbc9a621c	-0.01884561
14	0xbc7c76ba	-0.015409166
15	0x3d686ecf	0.0567463
16	0x3d9ff2d1	0.078099854
17	0xbc5e352d	-0.013562483
18	0xbd464bcc	-0.04841213
19	0x3d57f356	0.052722298
20	0xbc1465b0	-0.009057447
21	0x3d98d38d	0.07462225
22	0xbd01b62e	-0.03166788
23	0x3c8d49d0	0.01724711
24	0xbd33abf2	-0.04386515
25	0x3d29124d	0.04127722
26	0x3cbcef47	0.023063315
27	0xbd80f186	-0.06296067
28	0x3d2319b2	0.039819427
29	0xbaa64acd	-0.0012687087
30	0xbd3b2156	-0.04568609
31	0xbd5206b7	-0.051275935
32	0x3c6e9304	0.014561418
33	0x3d7dcc21	0.06196225
34	0xbcc35c5b	-0.02384775
35	0x3d8925b4	0.066966444
36	0xbd8b4196	-0.06799619
37	0xbc7a2346	-0.015267199
38	0xbc695926	-0.014242446
39	0xbd820b2c	-0.06349787
40	0xbce5f5ea	-0.028071363
41	0xbd8adaae	-0.06779991
42	0xbd03fbbb	-0.03222249
43	0x3c8ae8ab	0.016956648
44	0xbd30c9aa	-0.04316107
45	0x3cdc021f	0.02685648
46	0x3d385ed5	0.045012314
47	0x3cb706ce	0.022342112
48	0x3c0a9825	0.008459126
49	0x3d300aca	0.04297904
50	0xbcfae7e6	-0.030628156
51	0x3b82cb6e	0.003991536
52	0xbc89c307	-0.01681663
53	0x3c983270	0.018578738
54	0x3ca7883c	0.020450704
55	0xbd82e27b	-0.06390854
56	0x3d1c2cc7	0.03812864
57	0xbd5dc048	-0.05413845
58	0x3d653598	0.055959314
59	0x3c9e7d42	0.019346837
60	0xbd37babd	-0.044855822
61	0xbc5c4987	-0.013445265
62	0x3d031e6d	0.03201144
63	0x3c76b49b	0.015057708
64	0xbd1c050e	-0.038090758
65	0x3c33f0cc	0.010982703
66	0xbcf32f76	-0.029685717
67	0xbcc8f657	-0.024531526
68	0xbcfd6ca7	-0.030935599
69	0xbc898593	-0.016787326
70	0x3c41c178	0.011825912
71	0xbcaaf196	-0.02086715
72	0x3c43ce8f	0.011951103
73	0x3b08bb20	0.0020863488
74	0xbd680df1	-0.05665392
75	0x3d5d001f	0.053955194
76	0x3c985d2a	0.018599112
77	0xbba1bfe1	-0.004936204
78	0x3bc1b4e8	0.0059114583
79	0xbc2d89ed	-0.010591966
80	0x3be747f7	0.0070581394
81	0x3d6d4d69	0.057935152
82	0x3c138618	0.009004138
83	0x3b67d320	0.0035373643
84	0x3b84a5bb	0.004048077
85	0x3d7833b6	0.06059619
86	0xbcaececf	-0.021338848
87	0x3c8e8c30	0.017400831
88	0x3d6fd32c	0.058551
89	0x3db19174	0.08670321
90	0xbce56363	-0.028001493
91	0xbcf6140a	-0.030038852
92	0xbd7ca9e6	-0.061685465
93	0xbd1cf068	-0.038315207
94	0x3d90f2b0	0.07077539
95	0xbb380f60	-0.0028085336
96	0xbd3f960b	-0.04677395
97	0x3bc17d9f	0.005904868
98	0xbbed67df	-0.0072450484
99	0xbcf98358	-0.030458137
100	0xbbdd0620	-0.006745115
101	0xbc990056	-0.018676918
102	0xbd0cae00	-0.034345627
103	0xbd6e9fa8	-0.05825773
104	0x3c9fe123	0.019516533
105	0xbc055384	-0.008137587
106	0x3c473a95	0.012159963
107	0xbd277575	-0.0408835
108	0x3d99a4cd	0.075021364
109	0x3dacbfca	0.08435018
110	0xba02b0fd	-0.000498548
111	0xbcc11212	-0.023568187
112	0xbc867cbf	-0.016416905
113	0x3d9cce1f	0.07656502
114	0x3bf5af94	0.007497737
115	0x3ac98dd6	0.0015377353
116	0xba030a7d	-0.00049988163
117	0x3d0f15af	0.03493279
118	0x3ceae4ab	0.02867349
119	0xbd4a0cda	-0.049328662
120	0x3c2aebe5	0.010432218
121	0x3cd58150	0.026062638
122	0x3c157187	0.009121305
123	0xbd470a74	-0.048593953
124	0x3d79cb7b	0.06098507
125	0x3ce10e6e	0.0274727
126	0x3cd1c04d	0.025604391
127	0x3d051077	0.032486405
128	0x3d32d529	0.043660317
129	0x3cf8e011	0.03038028
130	0x3d0b36c4	0.033987775
131	0xbb3679fc	-0.0027843704
132	0xbc262873	-0.01014148
133	0x3d2987ed	0.041389395
134	0xbd387c12	-0.045040198
135	0xbd509612	-0.05092437
136	0x3d53f8c2	0.051750906
137	0xbd38f596	-0.045156084
138	0xbaec49da	-0.001802738
139	0x3d658d1d	0.05604278
140	0x3cc3f067	0.023918344
141	0xbb8f62f2	-0.004375809
142	0x3d804845	0.06263784
143	0xbd09f686	-0.03368237
144	0x3d19cdbd	0.037549723
145	0x3d217ed0	0.03942758
146	0xbc1fdfd3	-0.009757954
147	0x3cb29699	0.021800326
148	0x3d883fc0	0.06652784
149	0x3b7c2180	0.0038472116
150	0x3c55dd69	0.013053277
151	0xbd001abb	-0.031275492
152	0xbbd99c52	-0.0066409493
153	0xba9e88ff	-0.0012095271
154	0x3ce0b11e	0.027428206
155	0x3d5784e7	0.05261698
156	0x3d6420a4	0.05569519
157	0x3c991193	0.018685138
158	0x3d726ee8	0.0591878
159	0x3cd39cf2	0.025831673
160	0x3d29a5e2	0.041417964
161	0x3ca8d7bd	0.020610685
162	0xbd1939a0	-0.03740847
163	0x3c61aa3f	0.0137735
164	0xbd0a6819	-0.03379068
165	0xbd40a60a	-0.047033347
166	0x3cdf2168	0.027237609
167	0xbafe97bb	-0.0019423881
168	0x3d887244	0.066624194
169	0x3cd0da73	0.02549479
170	0xbd6ca06d	-0.05777018
171	0x3c34bd69	0.011031487
172	0xbc402247	-0.011726922
173	0xbd79057a	-0.06079624
174	0x3d51eb14	0.05124958
175	0x3d2448e2	0.04010857
176	0x3d7f4661	0.062322978
177	0xbd224fda	-0.039626934
178	0x3987fec5	0.00025939025
179	0xbcfe5330	-0.031045526
180	0x3d845939	0.0646233
181	0xbd8788b8	-0.06617874
182	0x3d7c1a2d	0.0615484
183	0x3dbb2b4a	0.09139116
184	0x3d19ec94	0.037579134
185	0x3b71bdcd	0.0036886812
186	0x3d1f824f	0.03894263
187	0xbd5460c7	-0.051850107
188	0x3c8c0f9e	0.01709729
189	0x3d38fbb8	0.045161933
190	0x3afac391	0.001913177
191	0xbcf5ce1d	-0.030005509
192	0x3d7cee38	0.06175062
193	0x3cc0d052	0.023536835
194	0xbcb00c0d	-0.021490121
195	0x389f1a16	7.58657e-05
196	0xbc4112f6	-0.011784306
197	0x3d0ca4a7	0.034336712
198	0x3d00bb99	0.031428907
199	0xbd19429c	-0.03741704
200	0x3d622a4d	0.055216122
201	0xbd8cfed7	-0.06884544
202	0xbc5b2de0	-0.013377637
203	0x3c1e5123	0.009662899
204	0xbb558a43	-0.003258363
205	0x3d6d55f0	0.057943285
206	0x3d9595d2	0.073039666
207	0xbcba8479	-0.022768246
208	0x3d518a22	0.051157124
209	0x3c8c6be2	0.017141286
210	0x3cf3d280	0.02976346
211	0x3d6feef1	0.05857748
212	0x3d56bdf2	0.05242724
213	0x3d1a05be	0.037603132
214	0xbc1fe570	-0.009759292
215	0x3c40c18e	0.011764897
216	0x3b8fa6f5	0.0043839165
217	0xbd0e066f	-0.034674104
218	0xbccab737	-0.024745567
219	0xbd306a0d	-0.043069888
220	0x3dac16e4	0.084028035
221	0xbbfdaf9a	-0.0077418806
222	0xbaaff15e	-0.0013423373
223	0x3bd9f293	0.0066512316
224	0xbd6c0171	-0.057618562
225	0x3d18c5ff	0.0372982
226	0x3d70aa05	0.058755893
227	0xbd913274	-0.07089701
228	0xbd30a0a6	-0.043121956
229	0x3d243619	0.040090654
230	0x3c2b06ec	0.010438662
231	0x3d473049	0.048630033
232	0x3d7544c9	0.05988005
233	0x3c2e10c3	0.0106241135
234	0xbd10979c	-0.035300836
235	0xbc3603ef	-0.011109336
236	0xbd54d9b4	-0.05196543
237	0x3ceb2715	0.02870516
238	0x3d0dbfe3	0.034606826
239	0xbb575a60	-0.0032860264
240	0xbd48efa0	-0.04905665
241	0x3d6dfa3b	0.058099966
242	0xbd53b764	-0.051688567
243	0x3d0f59c3	0.034997713
244	0x3d02bf52	0.03192074
245	0x3c29a1ab	0.010353486
246	0x3c24c2b3	0.010056186
247	0x3d39c60d	0.04535489
248	0xbd21bee1	-0.039488677
249	0x3d16468b	0.03668837
250	0x3bafab7c	0.0053610187
251	0xbc998e85	-0.018744716
252	0xbd2fa961	-0.04288614
253	0x3c8a449d	0.01687842
254	0xbb33ec02	-0.0027453904
255	0xbc727ce8	-0.014800288

linear3.weight f4 [1, 256]
0	0x3e45942a	0.19294801
1	0x3d22a11f	0.03970444
2	0xbd9b68e9	-0.075883694
3	0xbc20c7d2	-0.009813266
4	0x3d3489bf	0.044076677
5	0xbcd8b78b	-0.026454708
6	0x3d4295c0	0.047506094
7	0xbd079649	-0.033102307
8	0x3d30b9ae	0.043145828
9	0xbb97e22d	-0.0046351166
10	0xbd4f9352	-0.050677605
11	0xbd3d7ef0	-0.046263635
12	0x3d57cc70	0.0526852
13	0x3d885ab7	0.066579275
14	0xbd41457a	-0.0471854
15	0x3d4a2cf9	0.049359296
16	0x3dc0e3f8	0.094184816
17	0x3d055510	0.032551825
18	0xbdb794cf	-0.0896393
19	0xbb6db501	-0.0036271217
20	0xbd580ae3	-0.052744757
21	0x3eb2b2cd	0.3490204
22	0xbd48bfab	-0.049010914
23	0x3d813bec	0.06310257
24	0x3bb06ef0	0.0053843185
25	0x3d8c66aa	0.06855519
26	0xbd281c3f	-0.041042563
27	0x3d8e03bb	0.06934305
28	0x3e2d39d9	0.16916598
29	0xbd8705d6	-0.0659291
30	0x3d25842d	0.040409256
31	0xbdc97675	-0.09837047
32	0x3d7a3a6e	0.06109088
33	0x3d60d594	0.054891184
34	0x3cc9feca	0.024657626
35	0x3ec9e94b	0.394358
36	0xbdb4e560	-0.08832812
37	0x3e854da7	0.26035807
38	0x3e678680	0.22609901
39	0xbd4a001e	-0.049316518
40	0x3deb678b	0.11494359
41	0x3d6f1434	0.058368877
42	0xbd5578ae	-0.052117042
43	0xbd979551	-0.07401527
44	0xbd041e1a	-0.03225527
45	0xbd5ef727	-0.05443492
46	0x3f285cab	0.657664
47	0x3d4dc1f1	0.050233785
48	0x3cfbdfb1	0.030746313
49	0x3d7dd225	0.061967988
50	0xbd369735	-0.044577796
51	0xbc47ab16	-0.012186786
52	0xbd1cc123	-0.038270127
53	0xbcb8979c	-0.02253323
54	0x3d078ead	0.03309505
55	0xbcf0e94d	-0.029408121
56	0x3d148472	0.036259122
57	0xbd8588e4	-0.065202504
58	0xbacb950a	-0.0015532088
59	0xbd4c6764	-0.04990329
60	0xbc86946a	-0.016428191
61	0x3c848ca9	0.016180353
62	0xbd4e1cd8	-0.050320476
63	0x3ca46840	0.020069242
64	0x3d79ce1a	0.06098757
65	0x3d859563	0.06522634
66	0x3d58ddce	0.052945904
67	0xbc623f64	-0.013809059
68	0x3c3caf5d	0.011516419
69	0x3d615d0a	0.05502037
70	0xbd8130df	-0.063081495
71	0xbd0531bd	-0.032518137
72	0x3d97e05e	0.074158415
73	0x3d4ad268	0.049517065
74	0xbdabeeab	-0.08395132
75	0x3d3cda79	0.04610679
76	0x3d3bbb0b	0.045832675
77	0xbb18f4d8	-0.0023339298
78	0x3daf55e3	0.085613035
79	0x3cbcc37c	0.023042433
80	0x3cc686fb	0.024234286
81	0x3c3e4c3a	0.0116148535
82	0xbd05713e	-0.0325787
83	0xbcb44769	-0.022006707
84	0xbd50a583	-0.050939094
85	0x3d6de9d0	0.05808431
86	0xbd499c20	-0.049221158
87	0xbdbab772	-0.09117021
88	0xbd43e576	-0.047826253
89	0x3d149727	0.036276963
90	0xbd81a0e0	-0.063295126
91	0xbc0a5922	-0.0084441025
92	0xbd1ef8b7	-0.03881141
93	0xbcc3616e	-0.023850169
94	0x3e7fe56d	0.24989863
95	0x3919a9ec	0.00014654518
96	0xbd79a661	-0.060949687
97	0xbbf9ded7	-0.0076254415
98	0x3e2119c2	0.15732482
99	0xbd4e5b12	-0.05037982
100	0x3cb7749e	0.022394475
101	0xbd449588	-0.047994167
102	0xbd7f74fa	-0.062367417
103	0x3ca84256	0.020539444
104	0xbcd807c3	-0.026370889
105	0xbccd145e	-0.025034126
106	0xbd691b8e	-0.056911044
107	0xbd236f58	-0.039901108
108	0x3e6eff12	0.23339489
109	0x3de5cf50	0.11221182
110	0x3d3f9a79	0.046778176
111	0x37134500	8.777948e-06
112	0xbac0299a	-0.0014660836
113	0x3cce7915	0.02520422
114	0x3c423a39	0.011854702
115	0x3cbdeda7	0.02318461
116	0x3d8406fd	0.064466454
117	0x3d18f30a	0.037341155
118	0x3db08eda	0.08620997
119	0xbc1d0904	-0.009584669
120	0xbd82cfc5	-0.06387285
121	0xbcc5f388	-0.024163976
122	0x3d40ba8f	0.047052916
123	0xbd0ff42e	-0.035144977
124	0x3d8ab4cc	0.067727655
125	0x3d84a446	0.06476645
126	0xbd3a75cb	-0.045522492
127	0x3dda4dfd	0.10659406
128	0x3d857407	0.06516271
129	0x3d3f8e29	0.046766434
130	0x3c614b20	0.013750821
131	0x3d62af48	0.055342942
132	0xbd4c1acf	-0.049830254
133	0xbd9aca54	-0.07558122
134	0x3c57a0df	0.013160913
135	0x3bfd91c9	0.007738326
136	0xbcaad7d3	-0.020854866
137	0x3c9bb0be	0.019005176
138	0x3d1639d4	0.036676243
139	0x3d97c82b	0.07411226
140	0xbd5ee787	-0.05442002
141	0xbb185f16	-0.0023250035
142	0x3d8a1216	0.06741731
143	0x3d4e5b5c	0.050380096
144	0x3d626549	0.055272374
145	0xbd240290	-0.040041506
146	0xbd68b2b7	-0.05681106
147	0xbd0efdb2	-0.03490991
148	0x3d37fd8f	0.044919547
149	0xbd306f41	-0.04307485
150	0xbcef587f	-0.029217003
151	0x3d490813	0.049079966
152	0x3ccdef3e	0.025138494
153	0x3d7edf21	0.06222451
154	0xbb9ecefb	-0.0048464513
155	0xbd6ce6bc	-0.057837233
156	0xbd395461	-0.045246486
157	0x3dbb0e14	0.091335446
158	0x3d1aeb56	0.03782209
159	0x3de73836	0.11290018
160	0x3c2bf10a	0.01049448
161	0xbc15db36	-0.009146502
162	0xbcaa12e8	-0.020760968
163	0x3dd36a38	0.10322994
164	0xbdb2a586	-0.08722977
165	0x3d5c4cbb	0.053784113
166	0xbd8479fc	-0.06468579
167	0xbd9efd52	-0.07763161
168	0x3c876fbf	0.016532777
169	0x3c9712a3	0.018441504
170	0xbc9dafcf	-0.019248871
171	0xbb1f8149	-0.0024338535
172	0xbd3ffe80	-0.04687357
173	0xbd6d97b0	-0.05800599
174	0x3ce4c2bc	0.027924888
175	0x3e8f8fe4	0.28039467
176	0x3dc594bc	0.096475095
177	0x3d642c1d	0.055706132
178	0x3d032750	0.032019913
179	0xbca64edc	-0.020301275
180	0x3d93e57e	0.072215065
181	0xbdbd4f00	-0.09243584
182	0x3bba1535	0.0056787976
183	0x3d850a2e	0.06496082
184	0x3d1c6c34	0.038189128
185	0xbd240164	-0.04004039
186	0x3e10df90	0.14147782
187	0x3d46c7c8	0.04853037
188	0xbd9bc824	-0.07606533
189	0x3cb167ca	0.021655936
190	0xbcdee52f	-0.027208893
191	0xbd33312c	-0.043748066
192	0x3d08583d	0.033287276
193	0xbda39ac8	-0.079885066
194	0x3d154956	0.03644689
195	0xbd48eecb	-0.049055856
196	0xbda38b8b	-0.079856
197	0x3c639420	0.013890296
198	0xbd0dce92	-0.03462083
199	0xbd1c9883	-0.038231384
200	0xbd4850b7	-0.0489051
201	0xbd0277c8	-0.031852514
202	0x3e4c70e7	0.19964944
203	0xbd318141	-0.043336157
204	0xbce3005c	-0.027710132
205	0x3d743c2f	0.059627708
206	0x3dd7579a	0.105147555
207	0xbda804ea	-0.08204062
208	0x3bc58eaa	0.00602897
209	0xbb14402f	-0.0022621264
210	0x3c75ed28	0.015010156
211	0x3d461617	0.04836091
212	0x3d690110	0.05688578
213	0x3d085902	0.03328801
214	0xbaa4a128	-0.0012560235
215	0xbd0a8142	-0.033814676
216	0x3d046c01	0.032329563
217	0xbd0a653e	-0.03378796
218	0xbd946c3e	-0.07247208
219	0x3ccb1698	0.024791047
220	0x3d28c54a	0.041203775
221	0xbd863639	-0.06553311
222	0xbd92858a	-0.07154377
223	0x3d63c5c7	0.055608537
224	0xbce40bf0	-0.027837723
225	0xbc8e5eb6	-0.017379146
226	0xbd520e77	-0.051283326
227	0x3dbd8e0a	0.092556074
228	0xbca45ec0	-0.020064712
229	0x3da056eb	0.07829078
230	0x3e02a2f9	0.12757482
231	0x3e8643a8	0.26223493
232	0x3d56d271	0.052446786
233	0xbc869581	-0.01642871
234	0xbd7f35d7	-0.062307205
235	0x3e704844	0.23465067
236	0xbb849d72	-0.0040470893
237	0x39cfd0a3	0.00039637563
238	0x3e9b45d3	0.3032671
239	0xbc48093b	-0.012209232
240	0x3cdf6876	0.02727149
241	0x3d6d5309	0.057940517
242	0xbd5f3f7b	-0.0545039
243	0xbd47d40f	-0.04878622
244	0xbd42bcfa	-0.047543503
245	0xbd81080a	-0.063003615
246	0xba9caccd	-0.0011953354
247	0xbcd8cdce	-0.026465323
248	0xbcdc19f3	-0.026867842
249	0xbd22bb9c	-0.0397297
250	0xbb8ab531	-0.0042330255
251	0x3d7d92bf	0.061907526
252	0xbc197ccf	-0.009368136
253	0xbc814519	-0.015780019
254	0xbd0ee962	-0.03489054
255	0x3c9cdc60	0.019148052
