src/saved_models/pendulum/critic.pt (torch, 271678 bytes, 5 tensors)

linear1.weight f4 [256, 4]
0	0xbe2c72d8	-0.16840684
1	0xbe9bc052	-0.30420166
2	0xbddbb9a0	-0.107287645
3	0xbebcb182	-0.36854178
4	0x3e83a41c	0.25711143
5	0xbe3eef8a	-0.18646064
6	0x3ca6ff05	0.020385275
7	0x3e9f6780	0.31133652
8	0x3e4d8464	0.20070034
9	0x3e7a2b6c	0.24430627
10	0xbeb26eec	-0.34850252
11	0xbee735bc	-0.45158184
12	0x3efe914a	0.49720222
13	0xbe2a1d14	-0.16612655
14	0xbefcd972	-0.49384648
15	0x3ec85312	0.39125878
16	0xbe9ec602	-0.31010443
17	0xbd4e4f20	-0.05036843
18	0x3c2dcd80	0.010608077
19	0xbedee748	-0.4353583
20	0x3e5aee9c	0.21380085
21	0xbe9c10f8	-0.30481696
22	0xbe8a1d4a	-0.2697547
23	0xbdefb3f8	-0.11704248
24	0xbd298da0	-0.04139483
25	0xbd9443e8	-0.072395146
26	0xbefa6cda	-0.48911172
27	0x3e81ac34	0.25326693
28	0x3e062ec0	0.13103771
29	0x3ef8b5fe	0.4857635
30	0xbed518c2	-0.4162045
31	0xbe8b2d18	-0.2718284
32	0xbe9a3538	-0.30118728
33	0x3dd11870	0.10209739
34	0xbeb7ae82	-0.35875326
35	0xbe97b856	-0.29632825
36	0x3e962af0	0.29329634
37	0xbecfb320	-0.4056635
38	0xbe263bb5	-0.16233714
39	0xbeb90fd4	-0.36144888
40	0xbedc7ac6	-0.4306242
41	0x3e6fd678	0.23421657
42	0x3ebe0292	0.37111336
43	0xbe70b43c	-0.23506254
44	0xbed4cb22	-0.41561228
45	0xbdabc238	-0.08386654
46	0x3e9854d6	0.29752225
47	0xbdaaf698	-0.08347815
48	0xbe88d61e	-0.26725858
49	0xbe31c3b0	-0.17359805
50	0x3ead94fa	0.33902723
51	0xbe9f3e78	-0.31102347
52	0x3d996d10	0.07491505
53	0xbe353618	-0.17696416
54	0xbc803a40	-0.015652776
55	0xbe3ab668	-0.18233645
56	0xbee9e1b1	-0.4568
57	0x3e1c9088	0.1528951
58	0x3ec1fd7c	0.37888706
59	0x3ebdb790	0.3705411
60	0x3d9095c8	0.070598185
61	0xbd946368	-0.07245523
62	0xbd161570	-0.03664154
63	0x3ea63382	0.32461172
64	0x3e173dc4	0.14769655
65	0xbd106dd0	-0.035260975
66	0x3dfa9962	0.12236287
67	0xbed0a3e8	-0.4075005
68	0x3d9f5580	0.0777998
69	0x3e2a9ea4	0.16662079
70	0xbef1ba50	-0.47212458
71	0x3dbee420	0.09320855
72	0xbd0cfe30	-0.0344221
73	0xbe8669ec	-0.26252687
74	0x3ecf8452	0.4053064
75	0xbe066e34	-0.13127977
76	0xbe713930	-0.23556972
77	0xbe75fc8c	-0.2402212
78	0x3eb5e60e	0.3552708
79	0xbe7d2a80	-0.24723244
80	0x3edcb4e8	0.4310677
81	0x3efcdd20	0.49387455
82	0xbe5695ac	-0.20955533
83	0x3e809424	0.25113022
84	0xbe92854a	-0.28617316
85	0xbe199e04	-0.15001684
86	0x3e8c6a9c	0.27425086
87	0x3e3dee44	0.18547922
88	0xbe8ef110	-0.2791829
89	0x3dd06af0	0.10176647
90	0x3db46a70	0.08809364
91	0xbef7ba04	-0.48384106
92	0xbeeaad50	-0.45835352
93	0xbef04a98	-0.4693191
94	0xbe62151c	-0.22078365
95	0x3edc2616	0.42997807
96	0xbe9e4bec	-0.309173
97	0x3e6ee440	0.23329258
98	0xbe77f6d8	-0.24215257
99	0xbe6df50d	-0.2323801
100	0x3e8e3f90	0.2778287
101	0x3e7a3e5e	0.24437854
102	0xbe7c0044	-0.24609476
103	0x3efb5a9a	0.4909256
104	0x3e86b7ae	0.2631201
105	0xbe96c5bc	-0.29447734
106	0xbe8a15a2	-0.2696963
107	0xbeaccf52	-0.33751923
108	0x3c3d9100	0.011570215
109	0xbe0ebfcc	-0.13940352
110	0xbdc86f93	-0.09786906
111	0x3ec5f35a	0.38662225
112	0x3eedb188	0.46424508
113	0xbe5f9060	-0.21832418
114	0xbeda54ee	-0.4264292
115	0x3e5f3544	0.21797663
116	0x3e67f0ec	0.22650498
117	0x3cac5ae5	0.021039436
118	0x3ef327aa	0.474912
119	0x3d8c201b	0.06842061
120	0xbee476da	-0.44621927
121	0x3ec55fda	0.3854969
122	0x3c0acec0	0.008472145
123	0x3d8c9c18	0.0686571
124	0x3c8d24a7	0.017229391
125	0x3e957a58	0.29194903
126	0xbe4612b8	-0.19343078
127	0x3e2dac54	0.16960269
128	0x3e2e3318	0.17011678
129	0xbdaa5ec8	-0.08318859
130	0x3e2be231	0.16785504
131	0x3e9830f0	0.29724836
132	0x3e32f6c4	0.17476946
133	0x3eca3102	0.39490515
134	0xbda34768	-0.07972604
135	0xbde04790	-0.109511495
136	0x3d60a925	0.05484881
137	0xbdea2380	-0.11432552
138	0x3eb4b41c	0.35293663
139	0x3e069388	0.13142216
140	0xbebd6ca6	-0.36996955
141	0x3d077560	0.033070922
142	0x3eb6a89c	0.35675514
143	0xbeadd7c1	-0.3395367
144	0x3ee9d622	0.45671183
145	0x3e87eac4	0.265463
146	0x3e6cc0f0	0.23120475
147	0xbe88707a	-0.26648313
148	0x3e334b24	0.17509133
149	0xbe85f6ea	-0.26164943
150	0x3ea240d4	0.31690085
151	0x3e936b6e	0.287929
152	0x3e165cfc	0.14683908
153	0x3e0da6d4	0.13833171
154	0xbda558d8	-0.08073586
155	0xbee402fa	-0.4453352
156	0xbcbf5c60	-0.023359478
157	0x3e01f7ec	0.12692231
158	0x3df6d620	0.1205256
159	0xbe4fb964	-0.20285565
160	0xbddfc210	-0.10925686
161	0x3ef611be	0.4806041
162	0xbe6fd5fc	-0.23421472
163	0xbe7fe958	-0.24991357
164	0xbe3ee724	-0.1864286
165	0x3eb0e1ae	0.3454718
166	0x3eab834e	0.33498615
167	0x3c664c40	0.014056265
168	0xbe94d20a	-0.29066497
169	0xbea0283e	-0.31280702
170	0xbe9d9190	-0.30775118
171	0xbee88415	-0.4541327
172	0xbd2c4df0	-0.042066514
173	0x3ed65a06	0.41865557
174	0xbee651c8	-0.4498427
175	0x3d57caa0	0.052683473
176	0x3e14f718	0.14547384
177	0xbd5d9a54	-0.054102257
178	0x3ec6bcf8	0.38816047
179	0x3e81621b	0.2527016
180	0x3d57c130	0.052674472
181	0x3ea110dc	0.31458175
182	0x3eb99368	0.36245275
183	0x3d060e20	0.032728314
184	0x3ea7ec85	0.32797638
185	0x3eb2bff4	0.34912074
186	0x3cf34f60	0.029700935
187	0xbd913a28	-0.070911705
188	0xbed03dbc	-0.406721
189	0x3e991ac4	0.29903233
190	0x3e47cd13	0.19511823
191	0x3ed8ca66	0.42341918
192	0x3ec59d5e	0.38596624
193	0xbe7a1ec0	-0.24425793
194	0x3d14a3e0	0.036289096
195	0x3e95d2c4	0.29262364
196	0x3e0e2760	0.13882208
197	0x3ef4203a	0.47680837
198	0xbef0ec20	-0.4705515
199	0xbed076de	-0.40715688
200	0xbeee4f58	-0.4654491
201	0x3ce4fec0	0.027953506
202	0xbd41c1d0	-0.047303975
203	0x3e920c50	0.2852502
204	0x3ea9efd4	0.33190787
205	0x3e833702	0.25627905
206	0xbe292c0d	-0.1652071
207	0xbea7f0fa	-0.32801038
208	0xbebfb68a	-0.37443954
209	0x3d7d4370	0.06183189
210	0x3e9576a8	0.2919209
211	0x3ef3a84e	0.47589344
212	0xbdedb280	-0.11606312
213	0xbdbdfe86	-0.09277062
214	0xbee9435c	-0.45559204
215	0xbd889230	-0.06668508
216	0xbe3fb248	-0.18720353
217	0xbe212c38	-0.15739524
218	0xbdac1598	-0.08402556
219	0x3e356610	0.17714715
220	0xbe9008a6	-0.28131598
221	0xbde937b0	-0.11387575
222	0x3def0bf8	0.11672205
223	0x3e9ab15c	0.3021344
224	0xbe06fdbc	-0.1318273
225	0xbef54232	-0.47902066
226	0x3e62a498	0.221331
227	0xbe1f20e8	-0.15539896
228	0xbefbcdfa	-0.49180585
229	0xbeeeb8b0	-0.4662528
230	0x3ea1d80c	0.31610143
231	0xbeaa5a3e	-0.33271974
232	0x3dc213a0	0.094763994
233	0x3e434920	0.19070864
234	0xbe92f20e	-0.28700298
235	0xbedab5c2	-0.42716795
236	0xbcd9d1c0	-0.026589274
237	0xbeba3914	-0.36371672
238	0xbeb61f9c	-0.3557099
239	0x3db4bf98	0.08825606
240	0x3ed860ea	0.4226144
241	0x3e8e2314	0.27761137
242	0xbd64b5c0	-0.055837393
243	0xbe064b0c	-0.13114566
244	0x3e2f6311	0.17127635
245	0xbed4470e	-0.4146046
246	0xbe944c6a	-0.2896455
247	0xbeea2d88	-0.45737863
248	0x3e109f7c	0.14123338
249	0xbe561d04	-0.20909506
250	0xbdd19ce0	-0.10235
251	0x3c87c8e0	0.016575277
252	0x3df2ae6e	0.11849676
253	0x3ee6e07e	0.4509315
254	0x3d30bbb0	0.043147743
255	0x3ea6eb2e	0.32601303

linear1.bias f4 [256]
0	0x3efe982a	0.49725467
1	0x3e731b28	0.23740828
2	0x3e95897c	0.29206455
3	0x3e123434	0.14277726
4	0xbeaf87f6	-0.34283417
5	0xbeb0b3d4	-0.34512198
6	0x3df13598	0.117778
7	0xbd80df50	-0.062925935
8	0xbd1ecfb4	-0.0387723
9	0xbeac194e	-0.33613056
10	0x3e9fd57a	0.31217557
11	0xbe755b96	-0.23960719
12	0xbeb04a38	-0.34431624
13	0x3e9064fc	0.28202045
14	0x3ebebd48	0.37253785
15	0xbe261e34	-0.16222459
16	0xbef1874a	-0.4717353
17	0xbe481e88	-0.19542897
18	0xbdea6568	-0.11445123
19	0x3e820090	0.25391054
20	0xbeed7a22	-0.46382242
21	0xbd26f420	-0.04076016
22	0xbde8eb48	-0.11373001
23	0x3e69d2e8	0.2283436
24	0x3d892c18	0.06697863
25	0x3eb77004	0.3582765
26	0xbe5ac9ec	-0.2136609
27	0x3d575620	0.05257237
28	0xbe818d54	-0.25303137
29	0xbedbdd80	-0.4294243
30	0xbeb94642	-0.36186415
31	0xbe6beb50	-0.23038983
32	0xbee5a89c	-0.448552
33	0x3e0730c8	0.13202202
34	0x3d676369	0.05649129
35	0x3dda43a8	0.10657436
36	0xbe90ead2	-0.28304154
37	0xbeab2e9c	-0.33433998
38	0xbdd19380	-0.102332115
39	0xbe166950	-0.14688611
40	0x3e6a28a8	0.22867072
41	0xbcff33e6	-0.031152677
42	0xbd427140	-0.047471285
43	0xba7ce802	-0.0009647609
44	0x3edc069c	0.42973793
45	0x3ec14e12	0.37754875
46	0x3ec3042c	0.3808912
47	0x3ea10b26	0.31453818
48	0xbc897860	-0.016781032
49	0xbe399874	-0.18124563
50	0x3ef14f12	0.47130638
51	0xbecbc984	-0.39802182
52	0x3ef5069e	0.4785661
53	0xbee198e6	-0.44061965
54	0x3ec3dbc6	0.3825361
55	0x3ef19164	0.47181237
56	0xbe1401b0	-0.14453769
57	0xbe60109c	-0.21881336
58	0xbeb4a112	-0.35279137
59	0xbe969c18	-0.29415965
60	0x3ea616d0	0.3243928
61	0xbe1be4d8	-0.15224016
62	0xbe95bf3e	-0.2924747
63	0xbacacc00	-0.0015472174
64	0x3eb522f2	0.35378224
65	0xbda0b5d0	-0.07847178
66	0xbeeb5ac8	-0.45967698
67	0xbe94ca4a	-0.29060584
68	0x3ea05250	0.313128
69	0x3e3d55b8	0.1848973
70	0xbea265e6	-0.31718367
71	0x3e8ece16	0.27891606
72	0x3edfc922	0.4370814
73	0xbec2597e	-0.37958902
74	0x3ebf6024	0.37378037
75	0xbe8cb3f2	-0.27481037
76	0x3deb3558	0.11484784
77	0xbea375c6	-0.31925792
78	0x3dd229e8	0.10261899
79	0x3ebec844	0.37262166
80	0x3ea471da	0.32118112
81	0x3c477d40	0.012175858
82	0x3efaeb14	0.49007475
83	0xbebd9406	-0.37026995
84	0x3ef1b0b6	0.47205132
85	0x3e839ba4	0.25704682
86	0xbe37f3a6	-0.17964038
87	0x3e455a68	0.19272768
88	0x3c24dc00	0.010062218
89	0xbe98f4ec	-0.2987436
90	0x3dcad8c8	0.09904629
91	0x3ee12a32	0.43977505
92	0x3d7df750	0.062003434
93	0x3ef60dce	0.48057407
94	0xbeffa3ea	-0.49929744
95	0x3ec6b8e7	0.38812944
96	0xbea25250	-0.31703424
97	0xbe7c0384	-0.24610716
98	0xbe4ed710	-0.20199227
99	0x3eaa94da	0.3331669
100	0xbeec6dd2	-0.46177536
101	0xbdf83fb0	-0.121215224
102	0xbea959a4	-0.33076203
103	0xbe97971a	-0.2960747
104	0xbef220c8	-0.47290635
105	0xbe488e0b	-0.19585435
106	0x3e788604	0.24269873
107	0xbed11ba0	-0.4084139
108	0x3db20fc8	0.08694416
109	0x3afc3200	0.0019240975
110	0x3e0c2ca8	0.1368891
111	0xbdb2aed2	-0.087247506
112	0x3d00e4e0	0.031468272
113	0x3e585e18	0.21129644
114	0x3bae0b00	0.00531137
115	0x3e7e4986	0.24832734
116	0xbd3a7930	-0.04552573
117	0x3d48fbe0	0.04906833
118	0x3e600478	0.21876705
119	0x3ead18a8	0.33807874
120	0x3e0d3800	0.13790894
121	0x3d7d8a70	0.061899602
122	0x3e224630	0.15847087
123	0x3dbeed00	0.09322548
124	0x3ea04a16	0.31306523
125	0x3ec4dab2	0.384481
126	0x3d087380	0.033313274
127	0xbe13ba14	-0.14426452
128	0x3ed98e4c	0.42491376
129	0xbe332ec8	-0.17498314
130	0xbdffa530	-0.12482679
131	0xbe86e2f4	-0.26345026
132	0x3ee8ec8a	0.45492965
133	0x3ebe98de	0.37226003
134	0xbef4da6a	-0.47822887
135	0xbe72b06c	-0.23700112
136	0x3e11cf58	0.14239252
137	0xbdb96760	-0.0905292
138	0x3ecef28c	0.40419424
139	0x3e157f54	0.14599353
140	0x3de622f8	0.112371385
141	0x3e162e68	0.1466614
142	0xbeef32d2	-0.4671846
143	0x3e952f74	0.29137766
144	0x3d6a1620	0.057150006
145	0xbd73b790	-0.05950123
146	0xbedc0158	-0.42969775
147	0xbed09410	-0.40737963
148	0x3dcd7d08	0.100336134
149	0x3eeaded1	0.4587312
150	0xbeca1194	-0.39466536
151	0x3efc84ca	0.4932006
152	0xbe9dc798	-0.3081634
153	0x3ccb9160	0.024849594
154	0xbbf90680	-0.007599652
155	0xbe2379ec	-0.15964478
156	0x3ef0b762	0.4701491
157	0xbebae656	-0.36503857
158	0xbee99fad	-0.45629635
159	0xbe815a6c	-0.252643
160	0x3dc6bc90	0.09703934
161	0x3e507300	0.20356369
162	0x3e9c91e2	0.3058005
163	0xbe7797f4	-0.2417906
164	0x3e9bad5c	0.304057
165	0x3dcbe738	0.09956211
166	0xbe91b3c0	-0.2845745
167	0xbda70a28	-0.08156234
168	0x3db8dd90	0.09026635
169	0xbe870c0a	-0.26376373
170	0xbe58fddc	-0.2119059
171	0xbecabc02	-0.39596564
172	0xbc952e80	-0.01821065
173	0xbef8184e	-0.48456043
174	0x3df4e08a	0.1195689
175	0x3df13498	0.117776096
176	0x3e95a452	0.2922693
177	0x3eb55d9e	0.35422987
178	0x3dddbce0	0.10827041
179	0x3ea54025	0.322755
180	0xbe0aee54	-0.13567477
181	0xbdfc3f10	-0.12316716
182	0x3ebdd5b2	0.370771
183	0xbe219b40	-0.1578188
184	0x3eb3feea	0.35155421
185	0xbeb548d6	-0.35407132
186	0x3ee18fca	0.44055015
187	0xbeecf062	-0.46277148
188	0xbd0d4833	-0.034492683
189	0x3dfd6d18	0.123743236
190	0x3d8007b8	0.06251472
191	0xbef7157c	-0.4825858
192	0x3ed0353e	0.4066562
193	0x3ee780b5	0.45215383
194	0xbee2034c	-0.4414314
195	0x3e9457d2	0.28973252
196	0xbee1004a	-0.43945533
197	0x3e603bf8	0.21897876
198	0xbe679b6c	-0.22617882
199	0x3e327ee0	0.17431211
200	0x3e90aa62	0.28254992
201	0x3ebd8e14	0.3702246
202	0xbea33fae	-0.3188452
203	0x3df989a8	0.12184459
204	0xbead7380	-0.33877182
205	0xbbe1d380	-0.006891668
206	0xbea698fe	-0.325386
207	0x3e620fc8	0.22076333
208	0x3e74e1dc	0.23914284
209	0x3e08f3b4	0.13374215
210	0xbed00fec	-0.40637147
211	0x3bdf2380	0.006809652
212	0xbd142794	-0.036170557
213	0x3ef5c1a6	0.47999305
214	0x3eeddf68	0.46459508
215	0x3ef7128a	0.48256332
216	0xbd983708	-0.074323714
217	0xbe9c34c6	-0.30509013
218	0x3ee40c88	0.4454081
219	0xbeeb471d	-0.45952693
220	0x3e0b700c	0.13616961
221	0xbdf628e0	-0.12019515
222	0xbec6de38	-0.38841414
223	0x3efc07ca	0.49224693
224	0x3ded4ea8	0.11587268
225	0x3dc74548	0.09730011
226	0x3ee71c8c	0.45138967
227	0xbef318b6	-0.4747979
228	0xbedeeb8e	-0.4353909
229	0xbe947aa6	-0.28999823
230	0xbe4f8594	-0.202658
231	0x3eeaba3a	0.45845205
232	0x3e08a5c4	0.13344485
233	0x3ef576a8	0.4794209
234	0x3eb5cd0c	0.35508
235	0xbe0e3598	-0.13887632
236	0x3e803e2e	0.2504744
237	0x3eeacde0	0.45860195
238	0xbe5d5e60	-0.21618032
239	0xbd129090	-0.035782397
240	0xbe463000	-0.19354248
241	0x3de06c08	0.10958105
242	0xbe425b84	-0.18980223
243	0xbe34c104	-0.17651755
244	0x3e96817a	0.29395658
245	0xbd875848	-0.06608635
246	0xbeb312d2	-0.34975296
247	0xbd8de860	-0.06929088
248	0xbeb8ff1c	-0.36132133
249	0x3eb0b8d2	0.34516007
250	0x3e95b124	0.2923671
251	0xbe98b122	-0.29822642
252	0x3ea9ab01	0.33138278
253	0x3eeb64f4	0.4597546
254	0x3da30660	0.079602
255	0x3ef8063a	0.4844225

linear2.weight f4 [256, 256]
0	0x3d6f78fe	0.058464997
1	0x3d693150	0.056931794
2	0xbc0b62a7	-0.008507407
3	0xbd165042	-0.036697634
4	0x3d48be4a	0.0490096
5	0x3c569a88	0.013098367
6	0xbd73ccee	-0.059521608
7	0x3c030be8	0.007998444
8	0xbd14918a	-0.03627161
9	0x3d4b5cfe	0.04964923
10	0xbd484264	-0.04889144
11	0x3c368dd8	0.011142217
12	0xbd1d67e0	-0.03842914
13	0x3c549e08	0.012977131
14	0xbd3a0afe	-0.04542064
15	0x3d4db7d0	0.050224125
16	0x3d373258	0.044725746
17	0xbbd02f2c	-0.0063532796
18	0x3cac61b8	0.02104269
19	0x3cbad5cc	0.022807024
20	0x3d56976e	0.05239051
21	0xbcdbfabc	-0.026852958
22	0x3c893bb8	0.016752109
23	0xbd10c712	-0.0353461
24	0x3c7b1178	0.015323989
25	0xbcfa5632	-0.03055868
26	0xbcc5a8d4	-0.024128355
27	0xbd4501ac	-0.048097298
28	0xbcf50f28	-0.029914454
29	0x3c1b7978	0.00948941
30	0x3d5aac24	0.053386822
31	0xbd2dad42	-0.04240156
32	0xbc93a308	-0.018022075
33	0x3d7461e2	0.05966366
34	0xbc131e58	-0.0089794025
35	0xbc3bf188	-0.01147116
36	0x3d414e04	0.047193542
37	0xbb4d3dc0	-0.0031317323
38	0xbcb3daa8	-0.02195485
39	0x3d5e5a58	0.054285377
40	0x3cb99c48	0.022657529
41	0xbbd3c170	-0.0064622685
42	0xbcfb11e4	-0.03064818
43	0xbd69b410	-0.057056487
44	0x3d50de9a	0.05099354
45	0x3d36cf12	0.04463107
46	0xbb51d980	-0.003202051
47	0x3d450320	0.048098683
48	0x3c036198	0.008018874
49	0x3cd962c0	0.026536345
50	0x3c89d888	0.016826883
51	0x3bdfd580	0.006830871
52	0x3ce3f388	0.027826086
53	0x3d3425d2	0.04398138
54	0xbd3b8308	-0.045779258
55	0xbd5499d2	-0.051904507
56	0x3d7c6a52	0.061624832
57	0xbd193266	-0.03740158
58	0xbbc85780	-0.0061139464
59	0x3b98ccd0	0.0046630874
60	0xbd0d3f46	-0.03448417
61	0xbcdd0fc4	-0.026985057
62	0x3cc60efb	0.024177065
63	0xbc543328	-0.01295165
64	0x3d3765f2	0.044774957
65	0xbd6a10e4	-0.057145014
66	0xbcab05a8	-0.02087672
67	0xbd17adc2	-0.037030943
68	0x3ccd5b68	0.025068
69	0x3c779d52	0.015113192
70	0x3d0efb3a	0.034907557
71	0xbc351b48	-0.011053868
72	0x3d71206a	0.058868803
73	0x3b67d9a0	0.0035377517
74	0xbd30062c	-0.042974636
75	0xbd7444e8	-0.059636027
76	0xbd5e39bc	-0.05425428
77	0xbc92bb48	-0.017911568
78	0x3b9d4ac0	0.0048001707
79	0x3ba79fc0	0.005115479
80	0x3cd4a150	0.025955826
81	0xbcecb9bc	-0.028897159
82	0x3c806974	0.015675284
83	0x3b158ee0	0.0022820756
84	0xbd3b7390	-0.045764506
85	0x3a644980	0.0008708462
86	0x3c383b22	0.011244567
87	0x3c423778	0.011854045
88	0xbd15993e	-0.036523096
89	0xba803d40	-0.0009783879
90	0x3d4b4ae6	0.049631976
91	0x3d6fe156	0.058564506
92	0xbd434fa2	-0.047683366
93	0xbc0e4b88	-0.008685
94	0xbd276c65	-0.040874857
95	0x3b845f10	0.0040396526
96	0xbcc5f224	-0.024163313
97	0xbd408210	-0.046999037
98	0x3d55679a	0.052100755
99	0xbd38c47e	-0.045109265
100	0x3b56abc0	0.003275618
101	0xbd1e928a	-0.03871397
102	0xbc9b0d28	-0.018927172
103	0xbbadb370	-0.0053009316
104	0xbd115430	-0.035480678
105	0x3ccab010	0.024742156
106	0xbb5f2b00	-0.003405273
107	0x3c65a0a1	0.014015348
108	0xbd42a29a	-0.04751835
109	0xbd05b6b4	-0.032644942
110	0xbd31435c	-0.04327713
111	0xbd29b976	-0.041436635
112	0x3c41c370	0.011826381
113	0xbc654928	-0.013994493
114	0xbd39a2f6	-0.045321427
115	0x3ca52d2c	0.020163141
116	0xbc7baa28	-0.015360393
117	0xbca8767c	-0.02056431
118	0x3cc60663	0.024172967
119	0xbcbed626	-0.023295473
120	0xbcce81b8	-0.02520834
121	0x3c84e73c	0.016223542
122	0xbd4b0878	-0.049568623
123	0xbcce3f88	-0.025176778
124	0xbcbd72a0	-0.023125947
125	0x3c51b340	0.012799084
126	0xbd4cddd0	-0.050016224
127	0xbd422654	-0.047399834
128	0xbd0eddac	-0.03487937
129	0xbcf2dd64	-0.029646583
130	0x3ca0421c	0.019562773
131	0xbbad84e0	-0.005295381
132	0x3d39ec56	0.045391403
133	0xbabf7280	-0.0014606267
134	0xbd351a7c	-0.04421471
135	0x3d61f6be	0.055166952
136	0xbc76e730	-0.015069768
137	0xbcc52330	-0.02406463
138	0xbbe64940	-0.007027775
139	0xbd3f801a	-0.046753027
140	0xbce5c815	-0.028049508
141	0xbd1a4854	-0.037666634
142	0xbc832e8c	-0.016013406
143	0xbbd0bb50	-0.0063699856
144	0x3d57644e	0.052585892
145	0xbc0ca5b3	-0.008584428
146	0x3a2fbe80	0.0006704107
147	0xbd6c2b66	-0.057658575
148	0x3b5f10c0	0.0034037083
149	0xbd1854c0	-0.0371902
150	0x3d5abe82	0.05340434
151	0x3d2a6b16	0.04160603
152	0xba960d40	-0.0011448041
153	0xbd7e8c26	-0.062145375
154	0x3b5cc580	0.0033687055
155	0x3d0dc29a	0.034609415
156	0x3b9ebf60	0.004844591
157	0xbd4bb6e4	-0.049734965
158	0xbd123102	-0.03569127
159	0xbd6d04d1	-0.05786592
160	0xbc94f55c	-0.018183403
161	0xbcb31710	-0.021861583
162	0xbd58b972	-0.05291123
163	0xbd04812a	-0.032349743
164	0xbd0d1f1a	-0.03445349
165	0xbcb4f694	-0.022090234
166	0x3ceafa29	0.028683739
167	0xbd2dc05a	-0.04241977
168	0x3cbb4160	0.022858322
169	0xbd43831e	-0.047732465
170	0xbd4cd6c8	-0.05000952
171	0xbd4801ac	-0.04882972
172	0xbd1e08ae	-0.038582496
173	0xbbdb9d70	-0.0067021176
174	0x3c693e80	0.014236093
175	0xbca7a780	-0.020465612
176	0x3ce7af64	0.028281875
177	0x3d25563a	0.040365435
178	0x3ca3dfe4	0.02000422
179	0x3c9d32e8	0.019189313
180	0xbd51c8ae	-0.051216774
181	0xbd4d8fc8	-0.05018595
182	0x3d38885c	0.045051917
183	0x3d542516	0.05179318
184	0xbd79b6e4	-0.060965434
185	0x3b41a100	0.0029545426
186	0x3cc27dbc	0.023741595
187	0xbc4a62b0	-0.0123526305
188	0x3d45efd6	0.04832443
189	0xbd5aca3c	-0.053415522
190	0x3d254d78	0.040357083
191	0x3c8e2754	0.017352737
192	0x3b21bda0	0.0024679676
193	0xbd28cd76	-0.041211568
194	0x3ca1a538	0.019732103
195	0xbcc884ac	-0.024477325
196	0x3c03a720	0.008035451
197	0x3d53937a	0.051654316
198	0xbd4c1648	-0.049825937
199	0xbc8f8d28	-0.017523363
200	0xbd285262	-0.04109419
201	0x3cd44288	0.02591063
202	0x3d470722	0.048590787
203	0xbc788958	-0.015169464
204	0x3d59c630	0.053167522
205	0xbc3fb250	-0.011700228
206	0xbc706d16	-0.014674446
207	0x3d093b0a	0.03350357
208	0x3cd68df4	0.026190735
209	0x3d6299d6	0.05532249
210	0x3d59b6f0	0.05315298
211	0x3c2a23f8	0.010384552
212	0xbcb6bd44	-0.022307046
213	0xbd586a6e	-0.052835874
214	0xbca22b94	-0.01979617
215	0x3c651060	0.013980955
216	0x3d0f9102	0.0350504
217	0x3d77dd64	0.06051387
218	0xbc6d20d0	-0.014473155
219	0xbd46cae0	-0.04853332
220	0xbc18c1a8	-0.009323515
221	0xbd40c3d4	-0.047061756
222	0xbd754a0e	-0.059885077
223	0xbd57c388	-0.052676708
224	0x3c7b90b0	0.01535432
225	0x3c37d388	0.011219867
226	0x3d749eb2	0.059721656
227	0xbccbba48	-0.0248691
228	0x3d13703c	0.035995707
229	0x3d7b9c66	0.06142845
230	0x39e04500	0.00042776018
231	0xbca10c14	-0.01965908
232	0x3bf354b0	0.007425867
233	0xbd20fe90	-0.03930527
234	0xbcaf71e9	-0.021416621
235	0x3c86e1f4	0.016465165
236	0x3d54643c	0.051853403
237	0x3d126396	0.035739504
238	0x3d0df918	0.034661382
239	0xbc93b670	-0.018031329
240	0xbd660a2a	-0.056162037
241	0xbd2f7f36	-0.042845927
242	0xbc98cecc	-0.018653296
243	0x3d635bfe	0.055507652
244	0x3d1ef734	0.03880997
245	0xbceb1620	-0.028697073
246	0xbb6cfc40	-0.0036161095
247	0x3d03376e	0.032035284
248	0xbc5468e8	-0.012964465
249	0x3c2a1bd8	0.010382615
250	0xbbd4c190	-0.006492801
251	0x3d7860c4	0.060639158
252	0x3a991580	0.0011679381
253	0x3c77a278	0.015114419
254	0x3d2eca76	0.04267355
255	0x3d5c3d80	0.05376959

linear2.bias f4 [256]
0	0x3d72257a	0.05911777
1	0x3d433fbc	0.047668204
2	0xbb706760	-0.003668271
3	0xbbc285b0	-0.005936347
4	0xbcb8cabc	-0.022557609
5	0xbd7c7628	-0.06163612
6	0x3d7df66e	0.06200259
7	0xbb46f900	-0.0030360818
8	0xb9ac6701	-0.0003288314
9	0xbcd2f458	-0.025751278
10	0xbd31d256	-0.043413483
11	0xbd1e07d4	-0.038581684
12	0x3d2e01f1	0.04248232
13	0xbb0eb860	-0.0021777377
14	0xbd338868	-0.04383126
15	0x3c7d9848	0.015478201
16	0x3d3c2674	0.04593511
17	0xbd270abd	-0.040781725
18	0xbd3148ec	-0.043282434
19	0xbc27d2b0	-0.010243103
20	0x3d1d949c	0.038471803
21	0x3cfbbeac	0.030730568
22	0x3ccb2840	0.024799466
23	0x3a9bc700	0.0011884868
24	0xbcea7690	-0.028620988
25	0x3be847ed	0.0070886523
26	0xbbc27647	-0.00593451
27	0x3c3d6e62	0.011561962
28	0x3d44af96	0.048019014
29	0x3d604662	0.054754622
30	0x3c9bfbe0	0.019041002
31	0xbcdaee04	-0.026724823
32	0x3d30b58a	0.04314188
33	0xbb4906e0	-0.0030674264
34	0xbd5a31ac	-0.053270027
35	0x3d0fc00c	0.03509526
36	0x3d1c33d8	0.03813538
37	0xbd37495a	-0.044747688
38	0xbd658a98	-0.056040376
39	0xbc97b50c	-0.018518947
40	0xbd69baaa	-0.057062782
41	0x3d02c6aa	0.031927742
42	0x3c49c5e8	0.012315251
43	0xbd38ce9a	-0.045118906
44	0x3ccb5e94	0.024825372
45	0x3cbb1580	0.0228374
46	0x3c9145fc	0.017733566
47	0x3d244ab6	0.040110312
48	0x3d06e7b2	0.032935806
49	0xbc629bc8	-0.013831086
50	0xbd556dc0	-0.05210662
51	0x3d217970	0.039422452
52	0x3d738f2a	0.059462704
53	0x3d0b8a42	0.0340674
54	0x3d0b7920	0.03405106
55	0x3ca7e5b0	0.020495266
56	0xbcefea80	-0.029286623
57	0xbc7ea6f0	-0.015542731
58	0x3b40bda7	0.0029409917
59	0x3c9ebe38	0.019377813
60	0xbd37a3c0	-0.0448339
61	0xbd5adf8e	-0.053435855
62	0x3bf5e940	0.007504612
63	0x3d2bc8fa	0.041939713
64	0x3d71e2cc	0.05905418
65	0xbd26624e	-0.040621094
66	0xbc872094	-0.016495027
67	0x3c0975f0	0.008389935
68	0x3cd984ac	0.02655252
69	0xbd0cd9d6	-0.034387432
70	0x38a01005	7.6323784e-05
71	0xbc10a088	-0.008827336
72	0x3a5d8180	0.0008449778
73	0xbd26cbbe	-0.040721647
74	0xbd5cae06	-0.0538769
75	0x3d753556	0.05986532
76	0x3a3b8580	0.0007153377
77	0x3d2f6312	0.04281909
78	0x3d6976ee	0.056998186
79	0x3d2e28f6	0.042519532
80	0xbc00ad90	-0.0078538805
81	0xbd147a80	-0.036249638
82	0xbd037d9a	-0.032102205
83	0xba6c7400	-0.0009019971
84	0xbc8acc90	-0.016943246
85	0xbd74dc4a	-0.059780397
86	0xbb0b4480	-0.0021250546
87	0xbd32eb10	-0.043681204
88	0x3d0c26fe	0.034216873
89	0x3d6d9eba	0.0580127
90	0xbd2c570a	-0.042075194
91	0xbd012ac4	-0.031534925
92	0xbd3e0920	-0.04639542
93	0x3d497680	0.049185276
94	0x3c0c2818	0.008554481
95	0x3cacc77d	0.021091217
96	0xbc4f02a8	-0.012634911
97	0x3d148398	0.03625831
98	0x3ac73c00	0.0015200377
99	0xbc81858c	-0.01581075
100	0xbb8eeff0	-0.004362099
101	0x3bdf7bd0	0.0068201795
102	0x3cbbfa5c	0.02294653
103	0xbc809250	-0.015694767
104	0x3d0978ba	0.0335624
105	0x3d49de32	0.049284168
106	0x3ca397a8	0.019969776
107	0x3d12e030	0.035858333
108	0x3d53c77c	0.051703915
109	0x3d3e13dc	0.046405658
110	0x3d336a8c	0.043802783
111	0xbc473418	-0.012158416
112	0x3b30c860	0.0026974902
113	0xbd5443ea	-0.05182258
114	0xbba3f8c0	-0.0050040185
115	0xbc9c364c	-0.01906886
116	0x3c5eb77c	0.013593551
117	0x3c93ff94	0.018066205
118	0xbc92abc0	-0.017904162
119	0x3c862290	0.016373903
120	0xbd4fc0be	-0.050720923
121	0xbc04dba0	-0.008109003
122	0x3ca62f60	0.020286262
123	0x3c654efd	0.013995883
124	0xbd53d274	-0.051714376
125	0x3d764e04	0.060132995
126	0x3d379f1a	0.044829465
127	0x3d467ee2	0.04846085
128	0x3d72611e	0.05917465
129	0x3d0edbec	0.034877703
130	0xbd716698	-0.05893573
131	0x3d35b956	0.044366203
132	0x3c9c22b4	0.019059516
133	0x3c1d6b00	0.00960803
134	0x3d204c5c	0.039135322
135	0xbc815734	-0.015788652
136	0x3d6b5538	0.057454318
137	0xbc80e9ec	-0.015736543
138	0xbbf45c30	-0.0074572787
139	0x3d7b55d0	0.061361134
140	0x3d6a3e8a	0.05718855
141	0x3d019e12	0.03164489
142	0x3cd1764c	0.025569104
143	0xbcfe1cb0	-0.031019539
144	0xbd612a20	-0.054971814
145	0xbd61fc66	-0.055172347
146	0x3c844720	0.016147196
147	0xbc49f3a0	-0.012326151
148	0xbc648900	-0.013948679
149	0xbd7abc46	-0.061214708
150	0x3c90f330	0.017694086
151	0x3ccb68e7	0.024830295
152	0x3d17f1aa	0.037095703
153	0xbd545112	-0.051835127
154	0xbc138e60	-0.009006113
155	0x3ceebd71	0.029143067
156	0x3c0c6a90	0.008570328
157	0xbd3dd528	-0.04634586
158	0xbd4ae2da	-0.04953275
159	0xbce2b6d4	-0.02767507
160	0x3cb99118	0.022652194
161	0x3d08f400	0.03343582
162	0xbc990b94	-0.018682279
163	0xbc629388	-0.0138291195
164	0xbd7b466e	-0.061346464
165	0x3d1c579c	0.03816949
166	0xbc58f768	-0.01324258
167	0x3b885830	0.0041609034
168	0xbd6a0504	-0.05713369
169	0x3d15719c	0.0364853
170	0x3d3f5e94	0.046721056
171	0x3b3ebde0	0.0029104874
172	0xbd6cb588	-0.05779031
173	0x3c4568e8	0.012048937
174	0xbb16bcc0	-0.0023000687
175	0xbc8d9874	-0.01728461
176	0x3d4a9516	0.049458586
177	0xbc9f2f8c	-0.019431852
178	0xbb703880	-0.003665477
179	0x3d1d9d36	0.038480006
180	0x3d5a3cac	0.053280517
181	0xbd10b858	-0.035332054
182	0x3ce239b4	0.027615406
183	0x3d794618	0.060857862
184	0xbd36a5aa	-0.044591583
185	0x3c8146b4	0.015780784
186	0x3caa2120	0.020767748
187	0x3d0fce36	0.035108767
188	0xbba46be0	-0.0050177425
189	0x3d73b214	0.059496
190	0x3d154ee4	0.03645219
191	0xbce0fb94	-0.027463712
192	0xbca92368	-0.020646766
193	0x3cefad49	0.029257433
194	0xbae76200	-0.0017653108
195	0xbaeddf00	-0.0018148124
196	0xbd51b2c2	-0.051195867
197	0xbd64f13d	-0.055894125
198	0xbd74155a	-0.059590675
199	0x3c02b5d0	0.007977918
200	0xbce9f791	-0.028560432
201	0x3d5f71de	0.05455195
202	0xbd097208	-0.033556014
203	0x3d49a898	0.04923305
204	0x3c064378	0.008194797
205	0x3c1709c0	0.009218633
206	0x3d448740	0.047980547
207	0xbd7e8102	-0.06213475
208	0xbd065064	-0.03279151
209	0xbd2dc18a	-0.0424209
210	0xbd305fde	-0.043060176
211	0xbd76bad8	-0.06023678
212	0x3c15abb0	0.009135172
213	0x3c26dad8	0.010184012
214	0xbbab3760	-0.005225107
215	0xbd009cd2	-0.031399556
216	0x3caaaa80	0.020833254
217	0x3c7fbca0	0.015608937
218	0x3cb71bd8	0.022352144
219	0xbd7f6e96	-0.062361322
220	0x3d396a54	0.045267418
221	0xbc24d905	-0.010061507
222	0xbca063a4	-0.019578762
223	0xbc414d18	-0.011798166
224	0x3c7246b0	0.014787361
225	0xbd271e72	-0.04080052
226	0xbd104d1e	-0.035229795
227	0x3cd97a64	0.026547618
228	0xbcf8a644	-0.03035272
229	0x389ae000	7.3850155e-05
230	0xbd37dafe	-0.04488658
231	0xbd55fcc6	-0.052243017
232	0xbd64600e	-0.055755667
233	0xbd23cd1a	-0.039990522
234	0x3cfe020a	0.031006832
235	0x3c760318	0.015015386
236	0xbd0aeaf6	-0.033915482
237	0x3d16ede4	0.036847964
238	0x3c3f1938	0.011663727
239	0x3cc9f84c	0.02465453
240	0x3cfcdb70	0.030866355
241	0xbc8a8cd4	-0.016912855
242	0xbd3f8e8e	-0.04676681
243	0x3b8244c0	0.003975481
244	0xbb1c9fc0	-0.002389893
245	0x3d5d0b8e	0.053966098
246	0xbd3b9b82	-0.0458026
247	0xbcc78f3c	-0.024360292
248	0x3d0a1eea	0.03372089
249	0xbc10ee30	-0.008845851
250	0xbcd24920	-0.025669634
251	0xbc400eb0	-0.011722252
252	0xbd619f20	-0.055083394
253	0x3ccb4cf8	0.024816975
254	0xbcc0f7f4	-0.023555733
255	0xbcd2e50c	-0.025743984

linear3.weight f4 [1, 256]
0	0x3d5846e6	0.05280199
1	0xbd161832	-0.03664417
2	0x3d5dccbc	0.054150328
3	0xbc099718	-0.00839784
4	0x3d28d19a	0.041215517
5	0x3cbd3622	0.023097102
6	0x3cbc4bc8	0.022985354
7	0x3cc820ab	0.02442964
8	0xbcd947e8	-0.026523545
9	0x3b548c80	0.0032432377
10	0xbc705b58	-0.014670216
11	0xbcb8f6cc	-0.02257862
12	0xbd705416	-0.05867394
13	0xbc77fbf8	-0.015135758
14	0x3d30b57a	0.04314182
15	0xbd0dcc06	-0.0346184
16	0xbc5ca1f8	-0.013466351
17	0x3c46bab0	0.012129471
18	0x3d13d090	0.036087573
19	0xbc8c36a8	-0.017115906
20	0x3d5570b2	0.052109428
21	0x3c0c6328	0.008568563
22	0x3d7e3498	0.062061876
23	0xbd383100	-0.044968605
24	0xbc598530	-0.013276383
25	0xbc822cac	-0.015890442
26	0xbd7c6a4a	-0.061624803
27	0xbc26a1d8	-0.0101704225
28	0x3ce36eb0	0.02776274
29	0xbcbdc6aa	-0.02316602
30	0xbd51cb26	-0.051219128
31	0x3bda4b00	0.0066617727
32	0x3d064842	0.032783754
33	0xbcefb069	-0.029258924
34	0xbce7bac8	-0.028287306
35	0x3d1095fe	0.035299294
36	0x3d5803dc	0.052738056
37	0xbcf25dfc	-0.02958583
38	0xbc5a4c3c	-0.01332384
39	0x3c358770	0.011079654
40	0xbd41793a	-0.04723475
41	0xbc3fa548	-0.011697121
42	0xbb28db00	-0.00257653
43	0xbc263078	-0.010143392
44	0x3c1640b0	0.009170696
45	0xbd7be766	-0.061499976
46	0x3cd30ecc	0.025763892
47	0xbd460412	-0.048343726
48	0x3c15b740	0.0091379285
49	0xbcf54000	-0.029937744
50	0x3d5b6e16	0.053571783
51	0x3c762c92	0.015025275
52	0x3cb07ed8	0.021544859
53	0x3d1d654a	0.038426675
54	0xbbfe4170	-0.0077592656
55	0x3d2f2a0e	0.042764716
56	0x3d221cb6	0.039578162
57	0xbd7fd866	-0.062462233
58	0x3d7e0360	0.062014937
59	0xbc919388	-0.017770544
60	0x3d3e130e	0.04640489
61	0xbd35cf42	-0.04438711
62	0xbb7de380	-0.0038740337
63	0x3d2c4f52	0.042067833
64	0xbc5405e8	-0.012940861
65	0x3b9dd490	0.004816599
66	0x3d5b22f2	0.053500123
67	0x3d7d6e42	0.06187273
68	0xbcd1b4bc	-0.025598876
69	0xbd725518	-0.059163183
70	0xbd5d9f24	-0.054106846
71	0xbd54dbc0	-0.051967382
72	0xbd3698a0	-0.04457915
73	0x3bd014c0	0.00635013
74	0xbcec79fc	-0.02886676
75	0xbc44f900	-0.012022257
76	0x3c98c7f4	0.018650033
77	0x3d50b910	0.05095774
78	0xbd3230e2	-0.04350365
79	0xbd7cf614	-0.061758116
80	0xbd510bd2	-0.051036663
81	0xbd711600	-0.05885887
82	0xbc7f8c68	-0.01559744
83	0xbab962c0	-0.001414381
84	0x3c94e8e0	0.01817745
85	0x3d3064b2	0.04306478
86	0x3d1ad144	0.037797228
87	0x3cfc4262	0.030793373
88	0xbcea0da4	-0.028570957
89	0xbc7b17b0	-0.015325472
90	0xbd030880	-0.031990528
91	0x3ab207c0	0.0013582632
92	0x3c725820	0.014791518
93	0x3d60ce5c	0.0548843
94	0xbca34dbc	-0.019934528
95	0xbbc44b80	-0.0059904456
96	0x3bc603d0	0.006042935
97	0x3a09b880	0.0005253628
98	0xbd5d734c	-0.054065034
99	0xbcecb3d4	-0.028894342
100	0x3cbc8fa4	0.023017712
101	0xbd0f6aca	-0.03501395
102	0xbceaf4e0	-0.028681219
103	0xbd0cc996	-0.034371935
104	0x3d53ab26	0.05167689
105	0x3d73508a	0.05940298
106	0xbd2b7adc	-0.041865215
107	0xbcf76e72	-0.030204032
108	0x3d135eec	0.035979196
109	0xbc8e7dbc	-0.01739394
110	0x3d57bb26	0.052668713
111	0x3b978250	0.0046236888
112	0xbc08ece0	-0.008357257
113	0xbd6a5b0e	-0.057215743
114	0x3ccb73fc	0.02483558
115	0x3c004ab8	0.007830314
116	0xbb09a9e0	-0.0021005794
117	0x3d7133d4	0.058887318
118	0x3d0e71f6	0.03477665
119	0x3d7def50	0.061995804
120	0xbc3606ae	-0.011109991
121	0x3cf16c8e	0.029470708
122	0x3d453f42	0.04815603
123	0x3cb98a20	0.022648871
124	0xbd34917a	-0.04408405
125	0xbc5b9a80	-0.013403535
126	0xbd736732	-0.059424587
127	0xbc7c6846	-0.01540572
128	0x3d60656e	0.05478423
129	0x3d76e4a4	0.060276642
130	0xbd0d3aa4	-0.034479752
131	0x3cb665b4	0.022265293
132	0xbcb760c6	-0.022385012
133	0xbca2b024	-0.019859381
134	0xba26d880	-0.00063646585
135	0xbbb1a010	-0.0054206923
136	0x3cf65b44	0.030072816
137	0x3d23b358	0.039965957
138	0xbd5f87e0	-0.05457294
139	0xbc56c790	-0.013109103
140	0x3cd5a440	0.026079297
141	0xbcfd9a0c	-0.030957244
142	0x3d483627	0.04887977
143	0x3d4d7c94	0.050167635
144	0x3cd5b4ac	0.026087128
145	0x3ce59b34	0.028028108
146	0xbce71eb0	-0.028212875
147	0x3ce685b4	0.028139926
148	0xbd6f8382	-0.058475025
149	0xbcc3b014	-0.023887672
150	0x3d3d97be	0.04628729
151	0xbcf98d74	-0.030462958
152	0xbd7dc714	-0.061957434
153	0x3d696eec	0.05699055
154	0x3d07daf6	0.0331678
155	0xbc981068	-0.01856251
156	0xbd65c8dd	-0.05609976
157	0x3d510c1a	0.05103693
158	0x3d0700ac	0.032959625
159	0x3b3122c0	0.002702877
160	0x3c932f0c	0.01796677
161	0xbd00385a	-0.03130374
162	0x3a9fd7c4	0.001219504
163	0x3cacf3b0	0.021112293
164	0xbc917bd0	-0.017759234
165	0xbcb10678	-0.02160953
166	0x3d4c49c0	0.04987502
167	0x3cc8e638	0.02452384
168	0xba98f500	-0.0011669695
169	0xba6b4b05	-0.00089757174
170	0xbc4c03c8	-0.012452073
171	0xbd1a7844	-0.03771235
172	0xbd58d164	-0.052934065
173	0x3d28ddf8	0.04122731
174	0xbc4ffb10	-0.012694135
175	0xbc2781e8	-0.010223843
176	0x3cb92214	0.022599258
177	0x3d34b1da	0.044114925
178	0xbceb16c4	-0.028697379
179	0x39e97600	0.0004452914
180	0x3d5aee58	0.05344996
181	0xbd677692	-0.05650956
182	0xbd6da022	-0.058014043
183	0x3b706b00	0.003668487
184	0x3c9c4ad0	0.019078642
185	0xbce220bc	-0.0276035
186	0x3cfa2b3a	0.03053819
187	0x3c81174c	0.01575818
188	0xbd24f0ee	-0.04026883
189	0x3d6392a0	0.055559754
190	0xbc268dc8	-0.010165639
191	0xbce32790	-0.027728826
192	0x3c263d48	0.0101464465
193	0xbd4ad79a	-0.04952202
194	0x3d2e2996	0.04252013
195	0xbbaf6840	-0.0053530037
196	0x3b650c60	0.0034950003
197	0x3d795830	0.060875118
198	0xbd107982	-0.03527213
199	0xbc869f90	-0.016433507
200	0x3d4350e0	0.04768455
201	0x3c2b9778	0.010473125
202	0xbb2ad480	-0.0026066601
203	0xbcce0edc	-0.02515357
204	0xbd5be5e2	-0.05368603
205	0x3c698430	0.014252707
206	0x3be949c0	0.0071193874
207	0xbd6339ca	-0.055475034
208	0xbd05cf9e	-0.032668702
209	0x3b919ab0	0.004443489
210	0xbcf44e24	-0.029822417
211	0x3d1f4d36	0.038891993
212	0xbca64744	-0.020297654
213	0x3bae3420	0.0053162724
214	0xbb79c28a	-0.003811034
215	0xbccc72c4	-0.024957068
216	0x3d74e4fa	0.05978868
217	0x3cb60c00	0.022222519
218	0xbc884cc0	-0.01663816
219	0xbbe6e100	-0.007045865
220	0xbd594fc8	-0.0530546
221	0xbd273e7a	-0.040831067
222	0xbd38cbd8	-0.045116276
223	0xbd081a88	-0.033228427
224	0x3c1d3bf8	0.009596817
225	0x3cd59534	0.026072122
226	0x3d1c58aa	0.038170494
227	0xbc746670	-0.014917001
228	0x3b7a6640	0.0038207918
229	0xbc9cef14	-0.01915697
230	0xbb550fa0	-0.0032510534
231	0x3d7e40b2	0.062073417
232	0x38afe400	8.3871186e-05
233	0x3c7c1220	0.015385181
234	0xbd3051d4	-0.043046787
235	0xbd53126c	-0.05153124
236	0xbc87e9b0	-0.016590923
237	0x3d341734	0.04396744
238	0xbd10f416	-0.03538903
239	0xbc9738d4	-0.018459715
240	0xbc871004	-0.016487129
241	0xbd46242a	-0.048374332
242	0xbc1f61b0	-0.00972788
243	0x3c41ed00	0.01183629
244	0x3b883be0	0.0041575283
245	0xbc9a4c1c	-0.01883512
246	0x3d3bbc76	0.045834027
247	0xbb23a380	-0.002496928
248	0xbd605b8a	-0.0547748
249	0xbc81c530	-0.015841097
250	0x3c220da0	0.009890944
251	0xbd536126	-0.05160632
252	0xbd53d298	-0.05171451
253	0x3d74347a	0.059620358
254	0xbc25ddc8	-0.010123678
255	0xbd5529ba	-0.052041747
